model/triplet_autoencoder_9677.pth (torch, 400642 bytes, 12 tensors)

encoder.0.weight f4 [128, 123]
00000000: a9ac c4bd d647 913d 0ed1 fdbc 7815 89be
00000010: 58f0 a1be d90e ab3e 98da 24be 52e5 4ebf
00000020: 811e ee3e 9da3 01bf e3f9 7cbf 7f8c 763e
00000030: 6a72 a5be 5652 6fbf cfe4 9d3e fc2b 823d
00000040: 37bb cabe dccb 253d 8f24 88bd 1b3f eb3e
00000050: d9ee aa3f 1508 e43c da0e b23e 118f 763f
00000060: 60f5 c2be fb2e 90bc 0149 8a3e d31f 1ebf
00000070: 4d35 253f ee69 debd 1d46 95be e85e ae3e
00000080: ec20 8c3f ecbe 7dbe c09a e93e aaa7 5b3f
00000090: 246e 35be 44b6 843e 7dd2 b63e 0a6e 98be
000000a0: e9ca 37be afe6 a3be 563d 6fbe 834e c13e
000000b0: 1208 923f c55a debe ec02 8b3c 61e0 303f
000000c0: e443 01bf 7c79 9e3e 1075 4d3e 7bac 15bf
000000d0: cda7 953e 6414 183e b5ae 82be 5c88 003f
000000e0: 70dc cc3e 0c97 a4be b5fd 70be 5105 a8be
000000f0: a4a4 11bf a659 c0be 771d 43bf 1aa7 79be
00000100: 5997 ccbe 4cc5 aa3e 46a4 943e 74b8 e3be
00000110: 50a5 ba3d bcb1 3ebf 4364 91be 3c29 a6bb
00000120: 7ff0 163f 4247 07bf 6890 153e 1486 633d
00000130: 9a0e 35bd 85f1 c53d 3bd9 d1bd 3623 4b3f
00000140: 9937 e33f 855c 6e3e 9dc5 ce3b cb37 963e
00000150: 73aa 5dbf e22a 4dbf f08b 45bf 7346 103d
00000160: e648 a73d 60f8 afbc 0aac 66be d323 273e
00000170: 59af 8d3f a466 e73c af22 fe3e 5c4d f33e
00000180: 64d8 f0bd 009f 4d3d e2e9 b5be f356 253e
00000190: 4a17 fdbd 4aef a4bd aaf5 92be 23a5 153f
000001a0: adde b83f 6460 82be ad20 b1be 5e7c 223e
000001b0: dda1 9fbe c7af 233f 8de1 ddbe 8709 cabd
000001c0: 335a 2b3e 79f3 a93d ffac cf3d b742 ad3e
000001d0: 9184 f63e d950 01bf 88d3 aebf b7d1 c3bf
000001e0: 6467 36bf 2758 e7be 284b e3bf 587f cc3d
000001f0: 1eb1 1d3d 06e5 573d 2085 b33b c64a 583c
00000200: c97c 02bd 43be babc 7877 5cbc 7cfc 7fbd
00000210: 3f27 e93d 70e6 acbd 62bc 36be 6c1c ec3b
00000220: a599 babd 7e57 babd fe95 043e d0cf e2bd
00000230: d2b5 89bd 18b4 96bc dd20 8e3b 7bf6 4abe
00000240: f96f 18bc 0813 04be 6231 8ebd b93a 9ebd
00000250: 40a3 0ebe 25c8 17bd ef00 10bc 82b7 0e3e
00000260: 55de d9bd 888f c9bd d720 b4bd 4248 08bd
00000270: fa8e bcbc 1ffd 65bc bb51 073e 7aa5 943c
00000280: 6111 48bd ecd4 30bd 1315 5dbb 3255 053e
00000290: ad0d 0ebb 6f8d 8bbd ff4c 20bd 698f 3a3d
000002a0: 0217 d4bd d280 1ebe effc 173e 5f38 58bd
000002b0: 3511 16be 01be 093e 464e 6ebd 6d01 ab3d
000002c0: ee8f f7bc 38bf 25be bee1 513d c110 df3d
000002d0: e28b 19be 7d6d d23d 26b1 7c3d aae7 75ba
000002e0: 76d9 b0bd c5b6 053c 0867 f33c 71a6 173b
000002f0: 7f38 643d 5cef 21bd 0dd2 cf3c 81dc 0ebd
00000300: f5cd 0cbe 4449 343d 77a3 8cbd cba4 dfbd
00000310: 13a1 19bd 35f5 a5bd 939a cabd 3835 23bb
00000320: 5811 37bd 953d 67bc 337c 1dbd 5e5e 813d
00000330: 7e21 fdbd 5cfb a0bc 0066 c53b 1091 7e3c
00000340: f168 0dbd 48af e03d 4b3a b5bd c1ad bd3c
00000350: 053b a43d cae5 e6bd c241 c7bd 51f4 bbbb
00000360: a734 fc3b 5a1d 20be 99a9 8e3c 1aac bd3d
00000370: dbef c3bd 260c a53d 77a4 bcbd c438 803d
00000380: cbdd 083d d990 3abc 1e3d d5bd fdf4 a53c
00000390: eb3c 9bbc 8d65 b0bd e666 80bc 8b79 c13d
000003a0: 6e45 42bd cc21 a63d 497a 87bd 656e 8e3d
000003b0: f2b6 053e 53dc d9bc 7c97 2a3c 2130 e33d
000003c0: 01fa b3bd 9284 083c f636 00bd 66b6 bc3d
000003d0: b339 47bd 2364 233d 4ca0 d3bc 24c5 b53c
000003e0: 566d 443d 7877 f53c bf28 96bd 42c6 0d3d
000003f0: 8e50 b5bd ece7 9c3c adbb 29bd 14d9 973c
-0.09603245 0.0709378 -0.030983474 -0.26774192 -0.3162868 0.33409765 -0.16099012 -0.80818665
0.46507648 -0.5064028 -0.98818797 0.24077033 -0.32313854 -0.9348501 0.3083863 0.063560456
-0.3959596 0.04047762 -0.06647598 0.45946583 1.335414 0.027835885 0.34776956 0.9631205
-0.3807783 -0.017600527 0.27008823 -0.6176731 0.64534456 -0.10860048 -0.29155055 0.34056783
1.0947547 -0.24779862 0.45625877 0.8580271 -0.17717797 0.25920308 0.35707465 -0.29771453
-0.17948498 -0.32011935 -0.23363242 0.37755212 1.1408713 -0.43428627 0.016969167 0.69092375
-0.5049422 0.3095206 0.20064187 -0.5846631 0.29229584 0.14851528 -0.25523916 0.5020807
0.4001193 -0.3214649 -0.23534282 -0.32816556 -0.56891847 -0.37568396 -0.76216835 -0.2438015
-0.3995922 0.3335365 0.2903158 -0.44476664 0.09113562 -0.7448995 -0.28396806 -0.0050708335
0.5896072 -0.52843106 0.14605868 0.05554779 -0.04420338 0.09665207 -0.102465115 0.793506
1.7751342 0.23277481 0.0063101784 0.29339442 -0.8658821 -0.8014356 -0.7716665 0.035223436
0.08168201 -0.02148074 -0.22526565 0.1632226 1.1069137 0.028247185 0.49635836 0.47519958
-0.11760023 0.050200462 -0.3553 0.1614645 -0.12357958 -0.08053453 -0.28703052 0.58455104
1.4442955 -0.25464165 -0.34595242 0.15867755 -0.3117818 0.6394009 -0.43336144 -0.098650984
0.16733627 0.08298392 0.10140418 0.33839962 0.48148015 -0.5051399 -1.3658304 -1.5298375
-0.7125151 -0.45184442 -1.7757311 0.099852264 0.03849899 0.05270865 0.005478516 0.013201421
-0.031857286 -0.022795802 -0.013456218 -0.062496647 0.11384439 -0.0844239 -0.178453 0.0072055366
-0.091113366 -0.09098719 0.12947842 -0.11074793 -0.067241326 -0.018396422 0.0043374137 -0.19820587
-0.00930404 -0.12897885 -0.06943013 -0.07726044 -0.13929462 -0.037056107 -0.008789285 0.1393719
-0.106381096 -0.098418295 -0.08795326 -0.033272035 -0.023017395 -0.0140374 0.13214771 0.018145312
-0.0488447 -0.043171808 -0.0033734485 0.1302078 -0.0021675632 -0.06814086 -0.03913593 0.045546923
-0.10355951 -0.15478829 0.1484258 -0.052788135 -0.14655001 0.13451387 -0.058180116 0.08349881
-0.030219998 -0.16186225 0.051240675 0.108918674 -0.14994767 0.102747895 0.06169238 -0.0009380529
-0.086352274 0.008161251 0.029712215 0.0023139978 0.05571794 -0.03953491 0.025368715 -0.034878258
-0.13750441 0.044015184 -0.06867116 -0.10920104 -0.037507128 -0.0810341 -0.09892764 -0.0024903547
-0.044694275 -0.014113803 -0.038448524 0.06316827 -0.12359904 -0.019651107 0.0060241222 0.015537515
-0.034523908 0.10970932 -0.08849009 0.023154141 0.080190696 -0.112742975 -0.09729339 -0.005735912
0.0076967063 -0.15636197 0.017414855 0.092613414 -0.09567233 0.08058958 -0.09211057 0.06260827
0.033414643 -0.011387073 -0.10412048 0.020258421 -0.018949946 -0.08613119 -0.015674066 0.094470106
-0.047429495 0.08111915 -0.06615121 0.0695465 0.1305807 -0.026594317 0.010412093 0.11093164
-0.08787919 0.0083323885 -0.031302415 0.09214477 -0.04863901 0.03989042 -0.025833271 0.02218873
0.047955833 0.029964194 -0.073319905 0.0346129 -0.08853255 0.019153558 -0.041438747 0.018536128

encoder.0.bias f4 [128]
00000000: 5dfe 983c fd85 4dbe 03dc 07bd c4c4 2bbe
00000010: 6030 adbd 9844 a0bd fbd7 1dbe b880 3abe
00000020: 6c8f 13be 7ab3 abbd bf46 49bd a1e4 92bd
00000030: 6343 8ebd e849 66be 5613 cabd 82a9 0dbe
00000040: 3a13 b8bd 8927 d1bd 5e52 8fbd 76a8 2fbe
00000050: 7664 8fbe 98cb f0bd 68bb 1fbd 5d33 e7bd
00000060: 748b b7bd 8bfb 50bd 1629 a1bd f412 0cbd
00000070: aca9 1e3d 34bf 96bd fec5 f3bd 8b4a cfbd
00000080: 2f78 2ebe b127 73bc f208 81bd 630a c0bd
00000090: bd80 85bd a581 b0bd 5825 65bd 165c abbb
000000a0: cafa 683c 6b95 ec3b 52b3 7dbd b6b8 a5bd
000000b0: 22c6 8cbd ab1e fbbd d2a6 cebd 5510 d5bd
000000c0: 11f2 82bd 6117 b5bd 79f7 86bd c48b 86bd
000000d0: 5ce8 30bd d2b9 04be fc3c 86bd 332c a0bd
000000e0: 3422 01be 92d0 833e e308 c7bd 0f67 1abe
000000f0: 0a50 d0bd 0a35 23be 8d94 26be 209d efbd
00000100: 54dd 52bd 839e 68be 65dd 30be c437 f5bd
00000110: a260 21bd 6804 70bd d8b8 ebbd f7ac 48bd
00000120: 4945 9dbd 26bf 93bd 7ca3 0b3d c5e6 73bd
00000130: 5e85 b9bd 6c1a 5fbd d4c9 ddbd 2670 63be
00000140: 0044 22bd 7281 4cbd 0ea6 8b3d b474 1e3e
00000150: 7d69 01be 9d89 58bd ef6b b5bd b815 f0bd
00000160: 8c4a 15be ac22 673d cecb 39bd 01ad 823d
00000170: 6a2a c3bd 773a c7bd a774 a6bc 66d3 0cbe
00000180: 93fe 26bd ca97 ebbd bd94 14be 1716 82bc
00000190: 5395 29bd 4223 03be 1560 26be 1449 84bd
000001a0: e992 df3d d3a8 8cbd 036f 2cbd 0e5b 7ebd
000001b0: eb8d 28bd 3c80 39bd d6f8 76bd 90f8 f9bd
000001c0: f248 77be 463d 9cbd d778 18be 4b2d b73c
000001d0: 116c 08be 8814 a9bd e01c 50bd b3d1 5f3d
000001e0: eee7 9ebd 3477 87be ed77 42be 5add 96bd
000001f0: b532 94bd 64ca a6bd f6ed 5e3c 38c7 51bd
0.018675977 -0.20070644 -0.033168804 -0.16774279 -0.084564924 -0.07825583 -0.15414421 -0.18213165
-0.1441018 -0.08383842 -0.049139734 -0.07172514 -0.06946447 -0.2248913 -0.09866969 -0.13834193
-0.08988042 -0.10212619 -0.06998132 -0.17154106 -0.28006333 -0.117575824 -0.038997084 -0.11289094
-0.089621454 -0.05102114 -0.07869165 -0.034197763 0.03873603 -0.07360688 -0.119029984 -0.1012164
-0.17038034 -0.014841006 -0.06300534 -0.09376981 -0.065186955 -0.08618478 -0.055943817 -0.0052294834
0.014219949 0.0072199604 -0.06193859 -0.080918714 -0.06873728 -0.12261709 -0.10090412 -0.10403506
-0.06393827 -0.0884235 -0.065901704 -0.06569627 -0.043190345 -0.1296151 -0.065546006 -0.0782093
-0.12610704 0.25745064 -0.09718492 -0.15078376 -0.10171516 -0.15938202 -0.16267605 -0.11699891
-0.051480606 -0.22716717 -0.17271955 -0.11973527 -0.039398797 -0.058597952 -0.115098655 -0.048993077
-0.07679231 -0.07214193 0.034091458 -0.05954625 -0.09058641 -0.054468557 -0.10829511 -0.2221075
-0.03961563 -0.049928136 0.06818782 0.15474206 -0.12637897 -0.052865613 -0.08858477 -0.117228925
-0.14579219 0.05642955 -0.04536038 0.06380654 -0.09529574 -0.09727948 -0.020319296 -0.13752517
-0.040770125 -0.11503561 -0.14509864 -0.015879674 -0.041402172 -0.12806419 -0.1624759 -0.06459251
0.10916693 -0.06868138 -0.042098057 -0.062098555 -0.04115097 -0.04528831 -0.060295902 -0.12205613
-0.2414892 -0.076288745 -0.14889847 0.022360465 -0.13322474 -0.08255869 -0.050808787 0.054643344
-0.07759081 -0.26458132 -0.1899106 -0.07366438 -0.07236234 -0.08144072 0.013606539 -0.05121538

encoder.2.weight f4 [256, 128]
00000000: 91ab b6bd 1848 9ebc 2244 4fbd 28c8 52bc
00000010: a264 183d ae03 8cbd f5ea 8bbc b10f 68bd
00000020: 648b 953c c4b8 0bbe de0c 713d 70b6 18bc
00000030: 8792 fdbd 6e39 11bd 9ac7 583d 29e9 4fbd
00000040: 18d6 f0bc 64c8 0abe 296b 61bd 5669 593d
00000050: 49d6 b03d f0f9 533c 5f91 0abe c422 8e3c
00000060: 9081 b7bd e85c ed3c 555d 8fbc dcd6 cfbd
00000070: 045e f3bd 1336 993d 85e2 67bc fc30 cebd
00000080: 7820 e8bd 2cc9 d3bc 4a82 01be 3229 0ebe
00000090: f039 f3bb dbae f1bd 4b32 23bd a161 7a3c
000000a0: d2a5 b5bd 936e 8f3c d092 82bc 18ca 1abc
000000b0: 0062 11bb b8d5 b6bd bad8 47bd dd16 d03c
000000c0: cf18 06bd 6ccf c2bc 7efd 87bd 1410 a7bc
000000d0: bac3 90bd 2f23 2cbd 0628 29bd e037 013c
000000e0: 8da6 f4bd ea76 273c 9019 59bc 8c3f b3bc
000000f0: 6ac0 57bd 40ee 76bd 580c f4bc c878 87bd
00000100: 4cfb 92bd 9f73 963c 9200 11bd f33f 3dbd
00000110: e928 5cbd 90cc f1bd 386f b4bd 5276 6c3d
00000120: cbe2 9ebd 6614 7f3c 60b7 fbbd c189 8fbd
00000130: 7a1d 2e3d 0bff 9dbd a87a 373d 28cf 9ebc
00000140: ac6c 70bd 3229 07be 54e2 12be a874 f9bb
00000150: 5b07 943c 6c59 4dbd f321 863d fcbe 76bd
00000160: 6159 f83a 69a9 e5bb 248d 0bbe b4df d13c
00000170: dd94 243c 9f61 b6bd a2bc c8bd 53ce 61bd
00000180: b9c9 79bd 7f9e 44bd e37f f1bd 5a57 163d
00000190: 6509 b3bc 4644 92bb 518f 7f3c ed8f a93d
000001a0: bc1d aebd 3560 25bd 9470 3f3c 2216 71bd
000001b0: 13c1 37bd 91d0 7dbd f3ca 4cbd b910 a0bd
000001c0: 105a 8c3c 768b b7bd 8a1c d5bd ad77 b7bd
000001d0: 3cdd 8b3c 41c3 5abd 563c 4f3d 01ba f9bc
000001e0: 38f7 c3bd 00ad 6bbd 1689 98bd 0a0f 8abd
000001f0: 6ed3 5cbd a478 14be 8a2e 09bd 00ad c2ba
00000200: 8b24 8bbd e981 933d 3c8d 6bbd cec5 f03c
00000210: a862 07bc f5d0 dc3d 793f e93d c818 88bd
00000220: 063b ca3b 0d82 093d 8a3a 263d e0e2 603b
00000230: 4fb7 5e3d 91e4 343e 8fc9 623d dc87 19bd
00000240: e0ef 053c 0be8 1c3e 6829 59bd 7a68 c73c
00000250: 980c f73d e40c 15be b1f3 5c3e b3f7 e4bd
00000260: ce72 f9bd e87d b2bc a222 003e a7d9 0f3d
00000270: 077e 4fbe bb73 1cbd 571b 243d e78b 5c3d
00000280: aef9 aa3d bd6a 90be 2f9b 133e 4842 2f3e
00000290: 6479 8d3c 4834 abbd 7986 2ebc d5f6 633d
000002a0: b23e 463c 78d2 c63c 0056 fabb a84b 87bc
000002b0: d1cd a43d e71c c63d dbb3 cd3c e6b5 9cbb
000002c0: 3ada d93d 7a58 0b3d ffb9 9ebd 70de 67bc
000002d0: 94f3 073d 9dd0 c4bd 835b b03d f983 913d
000002e0: 6227 a63d 19aa 2a3e 4391 c93c ef4a 75bc
000002f0: c287 133d ac52 9d3d 121c 9bbc 3f44 ab3d
00000300: 0a68 143d 1ff6 f4bd a5ab 68ba 01eb 43bd
00000310: 96ab f43d 2a94 dbbc 15cb ea3d 3c73 c3bc
00000320: b3e0 a73d 03ae 013e 5c35 563d a06b 0a3d
00000330: 4e42 a13d 59f9 63bd ecba f33b 5649 b1bd
00000340: cc2c d13c 5f6f 153e a5e9 a23d 358a 023e
00000350: c5c0 083e d3a7 2dbd 83a8 973d fdd5 ffb9
00000360: 15f8 a43d 9fae f6bb 748f d03c 3dd4 aabe
00000370: f849 4f3d e371 b3bc fa86 bfbd e321 703d
00000380: e21b 07bb 8c2f c43c 0cbb edbc 1775 c93d
00000390: 15f0 9ebd 9bb9 233d 5100 63bd f201 54bd
000003a0: 749f 873d 7282 8ebd 5bad 883d 80a9 0a3c
000003b0: 2020 6c3b 584e fb3c 950f 913d f488 04bd
000003c0: 1121 0a3e 0f2d c03c ba66 bf3d f62d 88bc
000003d0: 191d 9c3d 3c0b 3dbc 043e a5bc 8139 0abe
000003e0: 55da 37bc 25af 7b3d 812f 023a 60b8 8cbb
000003f0: d652 783d db36 eebb 26bd d23d 506d babb
-0.089194424 -0.019321486 -0.050602086 -0.012865104 0.037205346 -0.06836639 -0.01707981 -0.05665559
0.018254943 -0.13644701 0.05885016 -0.00932084 -0.123814635 -0.03545516 0.05292473 -0.05075947
-0.029398963 -0.13553005 -0.055033837 0.05307897 0.08634622 0.012938008 -0.13532017 0.017350562
-0.08960259 0.028974965 -0.017500559 -0.10148403 -0.118831664 0.07481017 -0.014153128 -0.10067937
-0.11334318 -0.025852762 -0.12647358 -0.13882902 -0.007422678 -0.11800929 -0.039842885 0.015282066
-0.08869518 0.01750878 -0.015939146 -0.009447597 -0.0022183657 -0.08927482 -0.04879067 0.025401527
-0.032738503 -0.023780547 -0.06640147 -0.020393409 -0.07068582 -0.04202574 -0.041297935 0.007886857
-0.119458295 0.010221222 -0.0132507235 -0.021880887 -0.052673735 -0.060285807 -0.029791042 -0.06614834
-0.07176837 0.01836568 -0.035400935 -0.046203565 -0.053749952 -0.11806595 -0.08810276 0.057730027
-0.07758101 0.015568828 -0.122908354 -0.07008696 0.04250858 -0.07714661 0.04479471 -0.01938589
-0.058697388 -0.13199309 -0.1434415 -0.0076127835 0.018069914 -0.050134107 0.06549444 -0.06024073
0.0018947535 -0.0070087207 -0.1362806 0.025619365 0.010045257 -0.089053385 -0.09801604 -0.055128407
-0.060983393 -0.048002716 -0.117919706 0.0367044 -0.021855066 -0.0044637052 0.015598134 0.08279405
-0.08501765 -0.040374953 0.011684556 -0.058858998 -0.044861864 -0.061966483 -0.049998235 -0.078156896
0.017132789 -0.08962147 -0.10405834 -0.08958373 0.017073266 -0.053408865 0.05059465 -0.030484201
-0.095686376 -0.057538033 -0.07448022 -0.0674115 -0.053912573 -0.14499146 -0.03349165 -0.0014852583
-0.067940794 0.07202513 -0.05750774 0.029391196 -0.008263268 0.10782043 0.113890596 -0.06645352
0.006171587 0.03357129 0.04058317 0.0034314916 0.054374035 0.17665316 0.055368003 -0.03748308
0.008174866 0.15322892 -0.053018004 0.02434181 0.12062949 -0.14555699 0.21577336 -0.111800574
-0.121801004 -0.021788552 0.12513211 0.03511968 -0.2026292 -0.038196307 0.040065136 0.05384436
0.08348404 -0.28206435 0.14414667 0.17115128 0.017269798 -0.08359581 -0.010652178 0.05565532
0.012099909 0.024270281 -0.0076396465 -0.016515568 0.08047069 0.096734814 0.025110176 -0.004782426
0.106373265 0.034019925 -0.0775032 -0.014152154 0.03319128 -0.09610102 0.086112045 0.0710525
0.081129804 0.1666645 0.024605399 -0.014971479 0.03601814 0.07681784 -0.018934283 0.08362626
0.036232032 -0.119610064 -0.00088756747 -0.04783154 0.1194679 -0.026804049 0.11464516 -0.023858659
0.08197155 0.12664036 0.05229698 0.033794045 0.07873975 -0.05565772 0.0074380543 -0.08656566
0.025534056 0.14593266 0.079547204 0.12748034 0.13354786 -0.042396378 0.07405188 -0.00048796824
0.080551304 -0.0075281407 0.025459029 -0.3336505 0.05060765 -0.021904891 -0.093519166 0.058626067
-0.0020615985 0.023948453 -0.029019855 0.09836786 -0.07760636 0.03997193 -0.055420224 -0.051759668
0.0662221 -0.06958474 0.0667369 0.0084632635 0.003602989 0.030677006 0.0708305 -0.03235717
0.13489176 0.023458986 0.093457654 -0.016623478 0.076227374 -0.011538323 -0.020171173 -0.13498498
-0.011221488 0.061446328 0.0004966185 -0.00429444 0.060625874 -0.007269723 0.102899835 -0.0056893006

encoder.2.bias f4 [256]
00000000: 4f2c 9fbd 5f4c 253e 381f 3dbd dff3 96bd
00000010: 158f b2bd 9ca8 8fbd 65bd 7abd ff4b 2b3e
00000020: 299c fdbe 8447 da3d 5ef0 f53e d1cd 98bd
00000030: d547 b4be 7c05 2dbe 49c4 99be babb 2fbd
00000040: 21d1 763e 21e5 0abe 6207 743e df32 403e
00000050: 7804 ca3e 7e5c 1d3e 6383 d2bc 6361 43be
00000060: 1d14 81be f28c cbbe e417 c13e e52b 5b3e
00000070: b264 e7be ca57 933d 087d dfbd 443c 5b3e
00000080: aff4 fb3d c5bd d93d ccc7 54bd 759c 3b3e
00000090: 813c 19be 9a3b 4fbd 436c c63e 5088 153f
000000a0: 807d 90be 5e1f 3c3e 8672 cbbd ba64 673e
000000b0: ad2d aa3d 06cf 9ebe 8c8d c2bc e824 ccbd
000000c0: b6e8 64be 1df5 84bd 285a 68be 5a74 efbd
000000d0: 3a08 023f 31cb 4bbd ab17 473e 2e37 b4be
000000e0: 2e12 b7bd 5f81 41be 6ba5 1d3f 2b21 563f
000000f0: 2612 dcbd d5bb 91be 7c18 8ebd 4126 b4be
00000100: 8f40 ce3e 6c20 f9bd f2bd b5be e026 5bbe
00000110: 4afe babe 2615 cfbd 3706 653b a8c4 023e
00000120: deab 2f3e b789 5e3e 56c6 40bd 73c9 a1bd
00000130: d57f 473d 4f9e dbbd 0e68 e13e 70f7 75bd
00000140: 0507 9fbe a453 57be f909 e1bd d24b 913c
00000150: c6c7 6e3e 1d3d 57bd a920 45be 9f24 1f3e
00000160: 80c1 043f 818d aabd 661c 1b3f 0da6 c93e
00000170: fa79 b73c 81a7 40be b2f1 e53e 6662 273f
00000180: bbd2 c1be eca9 adbd d2eb d7bd 2d36 bbbd
00000190: 9805 233e 1a3c 063e f02a 8dbd d3d0 113c
000001a0: 5ea8 9dbe 2d0d 723d 4b66 0cbe a20e 433b
000001b0: 2fa3 2b3f 9fd1 d2bd 2117 d1bd c2f9 c5bd
000001c0: 0170 e1bc f53f 60be ba88 bd3e 75e9 0ebe
000001d0: 1d7f 89be 8eb0 3d3e 5ef5 4a3e 9152 fb3e
000001e0: 0b40 c2bd f493 023e c434 163e ed29 ff3d
000001f0: 4d17 843d 2bfb efbd 563d 09be 68e3 ccbe
00000200: 9027 21be 13c4 913d 1703 06be c773 c2bc
00000210: efae 92bd dec5 55bd 391e bc3d bc38 f93d
00000220: 7995 71be c309 99bd 15b6 9abd 4db5 c4bd
00000230: 9ebf 6dbd c590 bfbd ce57 e7bd c69a 033f
00000240: c2b7 d7bd 6838 a7be 12a3 fd3c e105 88bd
00000250: 6e58 af3d 422b ac3b 3f5d f9be bc33 bebd
00000260: c132 0d3e 64b9 e0bd d08f 1dbc ffae 09bd
00000270: 4240 29be 96ad 503e 8a6c 6fbe de20 e0bc
00000280: 9cc2 763a d3be a4bd f901 64bd 61c5 adbd
00000290: 179d db3e c76a 8a3e 94ca 7ebd 5aac 3c3e
000002a0: 54a5 b3bd 2253 bb3e 954e a3be 8329 343e
000002b0: 38f0 263e e565 a3bd 1b72 1f3e 8802 413e
000002c0: bc0d d8bd af81 cebd 5224 cbbb e5b0 cebe
000002d0: 8eee 6ebe 9170 a13e 1934 abbe a552 8ebd
000002e0: 862e 84bd 35ff 44bd b3bf d03e 1c02 f8bd
000002f0: 44f6 79bd 39c1 a9bd 5ed5 eebd 2b3b bbbe
00000300: b16d d7be 4b6d 5dbe 8ae1 4a3e 8778 aebd
00000310: 8893 0c3e 69c4 98be 7b8f 2d3e b024 3cbd
00000320: 4746 8cbd 84f9 9e3e f652 6ebe 7e71 22bb
00000330: 743b 93bd c6d9 10be 0edd b6bd 2422 96bd
00000340: 4ac3 9bbe fc97 013e f271 9e3e 7740 99bd
00000350: d2bd e9be a0b1 2c3e e169 453e d027 053e
00000360: 6007 eebe 9137 81bd 81c9 113e 8974 80be
00000370: 4620 17bd c3a1 323e 2119 f3bd de9a 533f
00000380: b2fb c83e 6c84 01be dbe5 19bd 252d 98bd
00000390: ff1b babe 6332 ea3e 7d34 423e 5b4f e93e
000003a0: 7de1 a33d 3d7b dfbd c917 5a3e 9e74 3e3e
000003b0: aa15 9e3e 76ef ef3e 84ce 4b3e b0b6 90bd
000003c0: 4294 b5bd bf73 7e3d 0f02 f63d 1658 e4bd
000003d0: 65c6 2b3e 224c 163e 8419 5fbe 9884 80be
000003e0: e197 b13e c53e 5abe 1353 e6bd 2969 b53e
000003f0: c747 76be 38c2 253f 7ecb 133e dcd8 f7bd
-0.07772123 0.16142415 -0.04617235 -0.073707335 -0.08718697 -0.070145816 -0.061215777 0.16728209
-0.49533203 0.10658172 0.48034948 -0.07461131 -0.35211053 -0.16896623 -0.30032566 -0.04290364
0.24103214 -0.13563968 0.23830941 0.18769406 0.39456534 0.15367314 -0.025697416 -0.19080119
-0.25210658 -0.3975597 0.3771354 0.21403463 -0.45194012 0.07194479 -0.1091252 0.21409708
0.12302529 0.10631899 -0.051948354 0.18321402 -0.14964487 -0.05059395 0.38754472 0.5841112
-0.2822075 0.1837134 -0.09933953 0.22597018 0.08309493 -0.3101732 -0.023749135 -0.09967977
-0.22354397 -0.06492064 -0.22690642 -0.11692114 0.507938 -0.049754325 0.19442622 -0.3519835
-0.089390144 -0.18897007 0.6158053 0.8364436 -0.10745649 -0.28463617 -0.06938264 -0.35185435
0.4028363 -0.12164387 -0.3549648 -0.21401548 -0.36522132 -0.101114556 0.0034946331 0.12770331
0.17155406 0.21732222 -0.047064148 -0.078997515 0.048705895 -0.10723554 0.440247 -0.060050428
-0.31060043 -0.21028 -0.1098823 0.01773635 0.23318395 -0.052548517 -0.1925074 0.15541314
0.5185776 -0.08327771 0.6059021 0.393845 0.02239703 -0.18813898 0.4491096 0.6538452
-0.37856087 -0.08479676 -0.10543026 -0.091411926 0.15920103 0.13108864 -0.06892955 0.008899885
-0.30792516 0.059094597 -0.13710897 0.002976336 0.67045873 -0.10293888 -0.102094896 -0.09666778
-0.027519228 -0.21899398 0.37018377 -0.13956244 -0.26854792 0.18524382 0.19820163 0.4908643
-0.094848715 0.12751752 0.14668566 0.124591686 0.06449757 -0.11717828 -0.13402304 -0.40017247
-0.15737748 0.07117476 -0.13087116 -0.023736848 -0.07162272 -0.052190654 0.09185452 0.12169024
-0.23592176 -0.07472565 -0.07554261 -0.09604893 -0.05804407 -0.093537845 -0.11296044 0.5140804
-0.10533096 -0.32660222 0.030961547 -0.06641746 0.085617885 0.00525418 -0.48703954 -0.09287211
0.13788892 -0.109728605 -0.009616807 -0.033614155 -0.16528419 0.20378718 -0.23381248 -0.027359422
0.00094131543 -0.08044209 -0.055665944 -0.08484913 0.42893288 0.2703459 -0.062204912 0.18425122
-0.08771768 0.36586863 -0.3189589 0.1759396 0.16302574 -0.07978419 0.15570872 0.18848622
-0.105494946 -0.10083329 -0.006199398 -0.40369335 -0.23333189 0.31531194 -0.33438185 -0.06949357
-0.06454186 -0.048094947 0.40771255 -0.12109777 -0.061025873 -0.082888074 -0.1166179 -0.3656858
-0.42075875 -0.21623723 0.19812599 -0.085190825 0.13728154 -0.2983735 0.16949265 -0.045933425
-0.06849342 0.3104974 -0.23273835 -0.0024786885 -0.07189074 -0.14145574 -0.089288816 -0.073307306
-0.3042243 0.12655634 0.30946308 -0.07482999 -0.45652634 0.16864634 0.19278671 0.13003469
-0.46490002 -0.063094266 0.14237024 -0.2508891 -0.036896013 0.1744452 -0.11870027 0.82658184
0.39254528 -0.12648171 -0.037572723 -0.07430486 -0.36349484 0.45741567 0.18965335 0.45568356
0.08001993 -0.10912178 0.21298136 0.18599173 0.30875903 0.46862382 0.19902998 -0.07066095
-0.088661686 0.062122103 0.120121114 -0.111496136 0.167749 0.1467748 -0.21787077 -0.2510116
0.34686187 -0.21313007 -0.11246314 0.35431793 -0.24050818 0.6474948 0.14433095 -0.121019095

encoder.4.weight f4 [2, 256]
00000000: e8bb 6b3d 3b88 c83b f5d2 55bc d2f8 b1ba
00000010: d8c2 683d bc28 913d 4adf 38bd 086f c8bc
00000020: 9ea3 3b3e 8d2c febb f47f 0ebd 2ce4 be3c
00000030: 2625 6abe 1a4d 2cbd fe0f 7b3e 2abe bdbc
00000040: 46ee 97bc 2073 b83c fe9d d73d e23c fd3b
00000050: 64ec 303d 5a35 a33d 152c 36bd 28c6 b7bd
00000060: 03a7 413e 9558 203e ef19 83bf 976b f63b
00000070: 58cd 903e 06f7 6e3b e4a1 8ebc 32e1 8e3d
00000080: f3e8 72bd 0e88 6fbc 4384 313a ed84 4fbf
00000090: a319 703d 631a 363d fb81 bc3e e4db 013c
000000a0: e114 52be 6981 02bd e05b fdbd f1e7 4f3c
000000b0: e9ac 69bd 8b1f 9abb 479e ddbc 3d19 db3d
000000c0: 0ad3 a03d e43f 153b 78a5 e0bd 7ba5 5cbc
000000d0: 31a0 063d ffd3 d83c 7fb6 ddbc 307c ef3c
000000e0: abf9 c03d 72df f5bc d875 edbd 316a ab3e
000000f0: af2f 09bd 8328 b83d 3830 063d 8422 5abe
00000100: 5f6d 253d 04a6 8d3d d474 30be 406f 1dbe
00000110: 1c64 54be 7dce 9bbc 7c4b eb3d 34dc 8ebc
00000120: 8def 203b d500 57bd 0179 d2bc 782f ac3d
00000130: ef3a 173e 0bff 3f3d 1ac6 d73e 68f9 ce3d
00000140: e159 b53d 3b4c eabb 3028 3a3c b307 db3c
00000150: fc97 47bd 222b 923b 3e9b 83bd cdcd e83b
00000160: a303 283e 6099 91bc 56a3 02be 5a38 23bd
00000170: af17 e53d dfcf c93c 258f f23e 26c7 eebe
00000180: d5ed 6dbd 5852 743d d03a 223c 1571 8d3d
00000190: 0eea e8bb 5f40 d8bb bd84 49bd 9958 f03d
000001a0: c2e7 863d f2c8 debc 8782 f5bd e400 233e
000001b0: c859 58bf a270 94bc 4eb0 e2bd beb5 7dbd
000001c0: c902 24bc 04aa 0aba 7359 e13d 5506 ecbd
000001d0: dce8 73be 158d 8c3b 7b66 23bd 48d7 a33e
000001e0: 0949 ad3d a94f 9bbc c2dd febc 3967 a4bc
000001f0: 8ded fe3d 65df 8a3d 2f7c ac3d 9b34 d2bd
00000200: b981 1a3d a2e4 25ba cc9d 903d 8716 3ebd
00000210: ae1e 2a3d 36f1 8a3d 9bd5 85bc 9c78 ebbc
00000220: ade8 1c3c 4767 943c c092 19bd 266e dabc
00000230: 0c5a d8bc 83a2 0ebd ba39 33bc 25a1 d83e
00000240: 7cf9 ef3c 4957 693e 2d4b 2d3c 0f04 55ba
00000250: 7c71 ac3d ad1a 473c 6b22 d6bd e2fa 35bd
00000260: 1ace 463f 0389 5a3d 5530 be3c c2a4 ad3a
00000270: 2680 8ebc 37b6 21bd 6e8f 23bb 5841 3c3b
00000280: f009 673c 7a32 863d a397 873d 2660 64bd
00000290: bdef a83e c5db 6b3c 5fdb 8f3c c04c 3ebd
000002a0: 54e3 6e3e 5fe5 0e3f 4240 b1bb 08a8 9e3b
000002b0: 19af 683b 5ee1 473d a25f 973b d8d1 c9bc
000002c0: f75c 9fbd 1b9b c03d 527e e3bc 5978 79be
000002d0: 193c 073d e9b8 a03c 5acd b2be bec0 623d
000002e0: 7a1f 913a 6f88 17bb 4a47 d23e 12fd 033e
000002f0: bf6e 86bc 47d2 c9bb fab8 24bc 2e62 6ebe
00000300: 3abd f0bd 0165 10be 1e37 743d a646 2fbc
00000310: 1e45 a43d 6fc0 c0bc 7a1d 6a3c 7ae7 373a
00000320: 93f8 e5b9 451d 873d ad11 643d ea99 103e
00000330: 825c 11bd 0947 9abd 126a 0d3e 9af0 3ebd
00000340: e4e4 6a3d 2f69 923d 7ec5 433d 79af 5ebd
00000350: 447e 55be d59b b4bc 3b12 42bd d77a ccbc
00000360: 28a7 ec3c ced5 d03c ee9c f03b a274 3ebe
00000370: 2c75 613c 757d 293c d530 19bd 7701 093b
00000380: dcdd 153e 0cfc aebd 16e7 b63d 8853 843d
00000390: 1a30 68be 6db3 903e 4eac 46bd f2ae 8e3d
000003a0: 65aa 8f3b ca91 0a3e e3e7 35bd 8771 2bbd
000003b0: df02 b23c 596e 713e f6ac 053c 6536 df3d
000003c0: b21d 4ebd 6307 e63d ab20 023d fd52 493d
000003d0: 3615 79bd 0a90 01bd 3321 af3c 026e 8f3c
000003e0: c9fa 663d fc2c 0e3e 955b 353d 32df 073f
000003f0: d8fb 513e ab61 883e 4fe1 2f3b 9aa9 d7bd
0.05755225 0.0061197556 -0.013050784 -0.0013578183 0.056826442 0.070878476 -0.04513482 -0.024467006
0.18324134 -0.0077567757 -0.034789994 0.02330216 -0.22865734 -0.042065717 0.2451782 -0.023161966
-0.018546235 0.022515833 0.105281815 0.007728205 0.04319419 0.079691604 -0.044475634 -0.08973342
0.18911366 0.15658791 -1.0242289 0.00752015 0.28281665 0.0036463155 -0.01741118 0.06976546
-0.05930419 -0.01461984 0.00067717227 -0.81062204 0.0586182 0.044458758 0.36817917 0.007925961
-0.20515777 -0.031861696 -0.123710394 0.0126895765 -0.057049666 -0.0047034672 -0.027053012 0.10698173
0.078527525 0.0022773677 -0.10969061 -0.013467188 0.032867614 0.026468275 -0.02706456 0.029234022
0.094226204 -0.030013774 -0.115947425 0.33479455 -0.03349274 0.08992102 0.03276083 -0.21302229
0.040387508 0.069164306 -0.17232066 -0.1537447 -0.20741314 -0.01901936 0.11489007 -0.017438985
0.0024556846 -0.052491028 -0.025692465 0.084074914 0.14768575 0.046874087 0.42143327 0.10106164
0.08855034 -0.0071502007 0.0113621205 0.02673707 -0.048728928 0.0044607082 -0.064260945 0.0071046115
0.16407637 -0.01777333 -0.1275762 -0.039848663 0.11186158 0.024635253 0.47374836 -0.46636313
-0.058088142 0.05964884 0.009901717 0.06906334 -0.0071079796 -0.0065994705 -0.049198855 0.11735649
0.06587173 -0.027195428 -0.11987787 0.15918308 -0.84511995 -0.018120114 -0.11068784 -0.0619409
-0.01001043 -0.00052896165 0.11003389 -0.11524645 -0.23819298 0.004289279 -0.039892655 0.32000184
0.08461196 -0.018958883 -0.031111602 -0.020068752 0.12447653 0.067808904 0.08422124 -0.1026394
0.03772137 -0.00063283194 0.07061347 -0.046408202 0.041533165 0.067842886 -0.016337207 -0.028744034
0.009576959 0.018115653 -0.037493467 -0.026663851 -0.026410125 -0.034822952 -0.010939056 0.42310444
0.029293768 0.22787203 0.010577005 -0.000812591 0.08420083 0.012152356 -0.104557835 -0.044428714
0.77658236 0.05335332 0.023216406 0.0013247954 -0.01739509 -0.039480414 -0.0024957317 0.0028725471
0.01410149 0.065525964 0.06620719 -0.055755757 0.32995406 0.014395659 0.017560659 -0.046459913
0.23328906 0.5581874 -0.0054092715 0.004841808 0.0035504757 0.04879891 0.0046195546 -0.024636194
-0.077814035 0.09404584 -0.027770195 -0.24362315 0.033016298 0.019619422 -0.34922296 0.055359595
0.0011072003 -0.0023122092 0.41070014 0.12889507 -0.01641023 -0.0061591 -0.0100538675 -0.2327964
-0.11754842 -0.1410103 0.059622876 -0.010697996 0.080209956 -0.02352926 0.014289254 0.00070153887
-0.00043863486 0.065973796 0.05568092 0.14121214 -0.035488613 -0.0753308 0.13809994 -0.046616174
0.057347193 0.071489684 0.047795765 -0.054366563 -0.20848948 -0.022046963 -0.047380667 -0.024960918
0.0288883 0.025492575 0.007342926 -0.1859918 0.013760846 0.010344853 -0.037400085 0.0020905414
0.14635414 -0.08544168 0.08930795 0.06461245 -0.226746 0.2826189 -0.048504166 0.06966962
0.0043843263 0.13532177 -0.044410598 -0.041856315 0.021729885 0.2357725 0.008158913 0.10899047
-0.05032129 0.11231878 0.031769436 0.04915141 -0.060811244 -0.031631507 0.021378135 0.01750851
0.05639151 0.13884348 0.044276793 0.53074944 0.20506227 0.26637015 0.0026837175 -0.10530396

encoder.4.bias f4 [2]
00000000: 32f7 693d 66b5 583d
0.05712051 0.05290737

decoder.0.weight f4 [256, 2]
00000000: 8db3 47be 80fb 54be 6fca eabe 1990 18bf
00000010: 91eb 16be 277f c0be b150 10be 28d8 f6bd
00000020: 4ac1 753e 0bbd 7d3e f951 4bbe 2f6c 05bf
00000030: 6663 e6bd 8ffc 263e 6d77 9f3e 9674 13be
00000040: ddde e8be 9fd5 293d 1c2d e3bc 8a62 07bf
00000050: 0069 be3e 4836 15bf 72a1 683e bfe0 e1be
00000060: 7220 cdbe 4538 4a3d 99b4 5bbf ad15 d13d
00000070: 82ae f83d b41c 20bf 02d7 2cbf 0187 0c3e
00000080: e6f7 143f 7e55 1bbe dd2d 2dbe 5ccb 1cbe
00000090: a44d 333d 71bc a3be 2e33 a6bd e49a d8be
000000a0: 8447 82be a2ce bb3d 9033 3abe 7037 c1bd
000000b0: 928e 41bf e66b 053f 080f b73e 2c88 803d
000000c0: ea82 45bd 7885 c5be 2221 34bf 2330 eb3e
000000d0: ccac a2be b168 8c3e be07 883e 33b8 04bf
000000e0: d3b5 d93d 2f9f f3be 2e76 19bf d162 4a3d
000000f0: dab7 aa3d 62f8 76bd a030 fcbd 75d3 2a3e
00000100: c2f6 48bc 1852 393e 2922 a43d 0130 0f3e
00000110: 5cca a63d 5e38 36bf c687 06bf 5610 8a3e
00000120: 6b95 4d3e 9c28 073f d453 013f 43b8 bfbe
00000130: 3406 603e e376 1dbf 38f1 ce3d 1991 883e
00000140: cd39 f23e 2e24 16bf bc86 c53d 49b9 91be
00000150: 9dbb 19bf 97f3 53be 1ca4 05bf 3e9e 043f
00000160: c6cc 28be 4775 e83e 299e 2dbf 02fd f83e
00000170: 4d5e 16bf 7ed4 21bf 8b0b fd3d c683 cbbe
00000180: e9d5 a5bd 43e8 053f 3d3b 46be a733 d6be
00000190: d6ab 383e b581 b43d 6ebf 28bf 3628 64be
000001a0: 5dca 0b3f 3228 07bf 81e8 25bf cd84 f93e
000001b0: 2ff5 703b e755 19be 6fff 31bf 1c6a fa3e
000001c0: daff acbd f3dc 78be 9cd5 87be 7981 0dbe
000001d0: 3bb6 61be f819 85be 70a7 c6bd b94e 27bd
000001e0: 86e5 23be 97a6 10be f700 833e 8ce5 0dbf
000001f0: 8b6b 0c3e 9ea9 c6bd 1a1c 0b3f 2a59 1cbf
00000200: 585b 3e3e de22 9c3e e1f0 203e 9f51 99be
00000210: 76f3 a8be 3763 ad3e 8062 ef3c 20dd 57bd
00000220: d552 b9bd 272d 0a3f 4aab d73c e99f efba
00000230: c3c9 07bf 4d0f 023f 6560 bd3e 710b e9be
00000240: d842 e5be 9cf1 09be 44f2 5b3d a77a debe
00000250: 8f85 29bf 822a c63e f0c8 97be f80b d1be
00000260: 8f3e 503e 9d92 06bf a206 cebd db22 8fbe
00000270: 8e09 613e cb10 c3be 419c a33d ff06 f93e
00000280: 1948 08be d883 223e f44c 04be 802b 163f
00000290: f318 23bd 8d78 0ebf c66e 2cbf 2b3c 19bf
000002a0: 9f09 d4be b79b 30bf 5c12 a23e 5201 f3bd
000002b0: 427a 45bd 5956 76bd abca f7bd 084d 173e
000002c0: 7976 53be cd63 b93e 80c7 b1bb f016 b83d
000002d0: 612d 31be f52e 8abe cf0e 0a3e 750e c53d
000002e0: a6de 27be 69db 2cbf e44a 22bf 4b66 21bf
000002f0: 40e5 d23e 8c6d fbbe 2fb4 39be 62ec e6be
00000300: 4b46 1dbf 6744 cc3e 5904 be3e 8ef6 1ebf
00000310: e870 1cbd 0319 a13e dbb2 21bf f00f d0bd
00000320: e689 8dbc c974 17bf eaa0 65bd dc20 a03c
00000330: f3a8 dbbd e53f 35be 25a1 0abf 0871 0ebe
00000340: 6e1f c6bd f152 a03e 821d 1cbe e857 11bb
00000350: 7d82 0f3f 44fc 25bf d32d ae3e 46df cc3e
00000360: 0a55 b03e ad63 e0be 9c39 91be 9020 2abf
00000370: f266 d4bc 8dac 25bf 8773 02bf d77f 21bf
00000380: 160a f73c b283 15bf 4626 32bf 1a5a 8fbe
00000390: 1fc9 47bd 79ea bdbd 0f19 943d 39e5 033e
000003a0: 1435 2dbf a086 f43e 308f a4bd 2974 34bc
000003b0: d60a 61bf 90e6 d83e c401 4cbf 692e 38bf
000003c0: 0fcb cd3d b8e6 bb3d afdf 6e3e e680 b5be
000003d0: d91a 24bf e488 b63e 9840 c2be 1b56 903d
000003e0: 8610 97bd babf 83be fb68 dcbe 4f00 903e
000003f0: e7a6 9abe be2d cdbe 1ce9 0cbf ed75 e83e
-0.19502087 -0.20799065 -0.4585757 -0.59594876 -0.14738299 -0.3759701 -0.14093281 -0.12052947
0.23999515 0.24779145 -0.19855489 -0.521182 -0.112494275 0.16307281 0.31145802 -0.14399943
-0.4548253 0.04146349 -0.02773147 -0.52884734 0.37189484 -0.5828595 0.22717836 -0.4411678
-0.40063816 0.04937007 -0.85822445 0.102092125 0.1214266 -0.625438 -0.67515576 0.13723375
0.58190763 -0.15169331 -0.16912027 -0.1531195 0.043775216 -0.31979707 -0.081152305 -0.42305672
-0.25445187 0.091702715 -0.18183732 -0.09434402 -0.7560817 0.52117765 0.35753655 0.06275973
-0.048220553 -0.3857839 -0.70363057 0.45935163 -0.3177246 0.27423623 0.26568407 -0.51843566
0.10630383 -0.47582385 -0.5994595 0.049410645 0.08335848 -0.06029547 -0.12313962 0.16682227
-0.012265863 0.18097723 0.08014328 0.13983156 0.08144066 -0.7117976 -0.52550924 0.26965588
0.2007653 0.5279634 0.50518537 -0.37445268 0.21877366 -0.6150953 0.101046026 0.266732
0.47309723 -0.58648956 0.09644839 -0.28461674 -0.600519 -0.20698391 -0.52203536 0.5180396
-0.16484365 0.45401976 -0.6781946 0.4863053 -0.5873764 -0.6321486 0.12355717 -0.39748973
-0.08097441 0.5230753 -0.19358535 -0.41836283 0.180343 0.08813802 -0.659171 -0.22280964
0.54605657 -0.5279571 -0.648079 0.4873413 0.0036767235 -0.14974175 -0.69530386 0.4890908
-0.08447237 -0.24303035 -0.2653016 -0.13818921 -0.22042172 -0.25996375 -0.09699905 -0.04084656
-0.16005525 -0.14126049 0.25586674 -0.55428386 0.137129 -0.09700321 0.54339755 -0.61073554
0.18589532 0.30495352 0.15716888 -0.29945084 -0.32998246 0.33864757 0.029221773 -0.052701116
-0.09049002 0.53975147 0.026326794 -0.001828191 -0.5304224 0.508046 0.36987606 -0.45516542
-0.4477756 -0.13471073 0.05369784 -0.4345295 -0.6621942 0.38704306 -0.2964549 -0.40829444
0.20336364 -0.52567464 -0.10059859 -0.2795628 0.21976301 -0.3809875 0.079887874 0.4863815
-0.13308753 0.15870607 -0.1291998 0.58660126 -0.039818715 -0.55652696 -0.67356527 -0.59857434
-0.4141359 -0.689876 0.31654632 -0.11865486 -0.048212297 -0.06014094 -0.12099203 0.14775479
-0.20650662 0.36208954 -0.0054253936 0.0898875 -0.17302467 -0.2698895 0.13482212 0.09621898
-0.16393527 -0.67522293 -0.63395524 -0.6304671 0.4119053 -0.49107015 -0.18135141 -0.4510222
-0.61435384 0.39895937 0.37112692 -0.6209496 -0.038193613 0.31464395 -0.63163537 -0.1015929
-0.01727767 -0.59162575 -0.056061663 0.019546919 -0.10725584 -0.17700155 -0.5415214 -0.13910306
-0.096739635 0.3131328 -0.15245631 -0.002217764 0.56058484 -0.6483805 0.34019336 0.40014094
0.3443988 -0.43826047 -0.28364265 -0.66455936 -0.025927994 -0.64716417 -0.5095753 -0.63085693
0.030156177 -0.58404076 -0.6958965 -0.2799843 -0.04877579 -0.09273238 0.07231342 0.1288041
-0.67659116 0.4775896 -0.08035123 -0.011014023 -0.8790716 0.42363405 -0.79690194 -0.71945816
0.10048496 0.091748655 0.23327516 -0.35449904 -0.64103466 0.35651314 -0.37939906 0.07047673
-0.073761985 -0.25732213 -0.43048844 0.28125235 -0.3020546 -0.4007396 -0.55043197 0.4540247

decoder.0.bias f4 [256]
00000000: f16d 89be 473a f9be 3102 3c3e a815 a1be
00000010: 1d12 17bf e73a cbbe 675b fbbe 867f e6bc
00000020: c1d9 9f3e 7651 b6be 6111 913d 37bd 94bd
00000030: 29bd 33be 86b7 aabe dd20 e53e 9dcb 013f
00000040: 112b 10bf 4322 74be 48b7 e9be f423 813d
00000050: 2065 573d 6667 493e de7b 26bf 421e 94bc
00000060: f3eb bb3e a3be ebbe bc3f 843e 6525 0e3e
00000070: 2434 09be 335a 4f3e db99 803e 559f 28be
00000080: f0e0 80be 1201 44be 9ca5 ea3e 7fed 06bf
00000090: 548b efbe 5799 94bf abfa 1ebe a52a a43d
000000a0: 461f e4be b2a0 fa3e 461d 75be e1f0 fc3a
000000b0: e14c 94be 3542 afbc e5ac 91be 8316 023f
000000c0: 8b99 fbbe 5302 9bbe 2571 e5bd 5be5 b83e
000000d0: 7614 0f3e c2ba 003f 07a5 013f cda4 00bf
000000e0: 9d34 30be 11fb 603e b669 dabd 6a47 8d3e
000000f0: 903d 6cbf 2c67 dfbe add3 8abd 06ff 20bf
00000100: 2103 1ebf 4c62 bb3d 3486 493d 5e7c 1dbf
00000110: 9900 fdbe acad 5abe 2555 cf3e a61f 003f
00000120: 9216 53be ac8f 3cbc d041 2cbf 91fe c83e
00000130: 67da 123f 70d7 70bf f77f 103f d34c c5bd
00000140: aa34 4fbf 9ea0 05bf 20f3 05bf 43e0 d13d
00000150: ca03 01bf 504a f53e 52c4 963e 96d2 393e
00000160: 2946 ee3d a318 22bf 4392 b0be bc5b bf3d
00000170: a68e cabe 13e9 bb3e 87dc 053f a448 993e
00000180: fec1 05bf a1b1 d63d 581a 86bb 80fc ee3e
00000190: 8e65 833c e801 033d b4f0 b73d bd7d d93e
000001a0: 1c9d 79be 5106 c43d 5690 0cbf 4c28 69bf
000001b0: 74a8 31bd 04da de3e d823 cebe f221 20bf
000001c0: bd2e 113f e949 173f f02b a43e 4704 91be
000001d0: e9b5 163e c4ed fcbe 32f0 56bf d4dc ce3d
000001e0: 6e01 b03e 4c5c 603d d78e 18bf 5655 ab3d
000001f0: 3cf2 35bf ca5b 1fbf 99fd b1bd cb0f 11bf
00000200: fe23 a83e b2a4 ffbe b058 13bf 2462 3a3e
00000210: 3df5 023f 16ee 1b3f 926c 4c3d 91b5 2ebf
00000220: 0e42 c33e fc12 0abf 5e4b 01bf 637b fc3e
00000230: 0266 fdbe 90ae 7cbf 035a 0e3d 2aca 05bf
00000240: 8aeb f23e 879e eabe 4c29 1fbe 631d 343d
00000250: 6f1e 0f3f 50a2 37bf 3b83 03bf de56 973b
00000260: 4d85 963e 9736 66bd 4fc0 f63e 60b8 8dbe
00000270: 9f64 b2be 1db8 80bf 9553 893d dfe2 16bf
00000280: ffae 65be 4c1c b53e 1f7a f7be cc8a 9e3e
00000290: 6807 2bbf e63a 0cbf 5d0f 073f aec3 35bf
000002a0: e8e6 b93e 17ce 36bf a245 013f cee0 76be
000002b0: 62a5 3c3e 005f 45bf e3eb 61be 1550 853e
000002c0: e7a7 26bf 4622 b8be eaf2 16bf 2fd2 69be
000002d0: e2a3 da3e e25d 143f e824 eb3e a886 22bf
000002e0: bdde af3d 7f31 19bf c4a2 4c3c bee3 c0be
000002f0: a402 9f3e 09fc 5abe 6843 f2be f62f 0a3f
00000300: c6b4 6a3c fb36 95be 6df0 813e 5313 e93e
00000310: 1cbc 04bf 0ab9 60bf 3a2f 76bf 2b44 133f
00000320: c7fa b93e 2424 92be f16f d83e eaa0 61b9
00000330: d7e4 33bf 23aa 30bf 9b76 c0be 163a 4d3e
00000340: fe8d ce3e 073d e53e 31ba 1b3e 952e 18bf
00000350: 6019 bdbe b9e8 8cbe bc21 633c 49bb 6abc
00000360: 41d6 2abf 9199 1d3e 7a2a b13e 9c86 9a3e
00000370: 9582 6ebe 3d95 4abf 8376 1e3e 7bff 5d3e
00000380: b4da 80be 9021 42bf 2f8b aebe 9419 3bbe
00000390: 03d1 03bf 4c39 f43d d6ba aabe ca83 12be
000003a0: ceb5 9e3e e83a 25bf 1400 dbbe 1d7e 83be
000003b0: 85bf 023d 4788 8c3d b21a 45bf 506d 63be
000003c0: 0e3a 35bf 4ec4 febd da92 81bf 670e 0fbe
000003d0: 7a79 093d 5451 febc 7023 1c3e 7efa 9b3e
000003e0: 31df 293e 5c81 d5be 4e5f 073f 5b15 2b3e
000003f0: c4cc b93e 45a5 423e a0d0 af3e 8390 d33e
-0.2684169 -0.48677275 0.18360211 -0.31461835 -0.59012014 -0.39693376 -0.49093172 -0.02813698
0.3122082 -0.35609025 0.07083393 -0.07262652 -0.17552628 -0.33343142 0.44751635 0.50701314
-0.56315714 -0.23841195 -0.45647645 0.06305686 0.052586675 0.1966835 -0.65032756 -0.018080834
0.36703452 -0.46043882 0.25829875 0.13881452 -0.13398796 0.20249252 0.25117382 -0.1646703
-0.25171614 -0.19141033 0.45829475 -0.5270614 -0.46785986 -1.1609296 -0.1552531 0.08015946
-0.4455511 0.48950726 -0.23936948 0.0019297862 -0.28964904 -0.021393875 -0.2845222 0.508156
-0.4914058 -0.3027521 -0.11203221 0.36112484 0.13972649 0.5028497 0.50642437 -0.50251466
-0.1720757 0.21970774 -0.10664694 0.27593547 -0.92281437 -0.436334 -0.06778655 -0.62889135
-0.61723524 0.09149608 0.04920025 -0.61517894 -0.49414518 -0.21355313 0.40494648 0.5004829
-0.20614079 -0.011508863 -0.6728792 0.3925672 0.57364506 -0.9407873 0.5644526 -0.09633794
-0.80939734 -0.5219821 -0.52324104 0.10247853 -0.50396407 0.47908258 0.29446656 0.18146738
0.11634476 -0.6331884 -0.3448659 0.09343669 -0.39561957 0.3670126 0.52289623 0.29938233
-0.52249134 0.10483099 -0.004092496 0.46677017 0.016039636 0.03198424 0.08981457 0.42478743
-0.24376339 0.09571517 -0.5490774 -0.91077113 -0.04337354 0.43525708 -0.40261722 -0.62551796
0.5671194 0.5909715 0.32064772 -0.28323576 0.1471783 -0.4940015 -0.8396026 0.10100713
0.3437609 0.05477552 -0.59592956 0.08365886 -0.71072745 -0.62249434 -0.08690948 -0.56664723
0.3283996 -0.4993034 -0.575572 0.182015 0.51155454 0.60910165 0.04990823 -0.682458
0.38136333 -0.5393522 -0.50505626 0.49312887 -0.49491888 -0.9870386 0.03475381 -0.522616
0.47445327 -0.45824072 -0.15543097 0.043973338 0.5590581 -0.71732044 -0.51372117 0.0046185097
0.29398575 -0.056204405 0.48193595 -0.2767973 -0.34842393 -1.0056187 0.06705395 -0.5893993
-0.22430037 0.3537315 -0.48335359 0.3096527 -0.66808176 -0.5477737 0.5275782 -0.7100171
0.3630898 -0.7140822 0.50496876 -0.24109194 0.18422464 -0.77098083 -0.2206264 0.2603766
-0.6509995 -0.3596365 -0.5896441 -0.22834085 0.42703158 0.57955754 0.45926595 -0.6348672
0.08587406 -0.5984115 0.012489978 -0.37673753 0.31056702 -0.21385206 -0.47317052 0.5397943
0.014325326 -0.2914351 0.25378743 0.45522556 -0.5184953 -0.8778235 -0.9616581 0.5752589
0.3632414 -0.28543198 0.42272905 -0.00021517617 -0.70271057 -0.6900961 -0.3759049 0.2004169
0.40342706 0.44773123 0.15207745 -0.5944608 -0.36933422 -0.27521303 0.013863023 -0.014326879
-0.66733176 0.15390612 0.3460272 0.30180824 -0.23292 -0.7913397 0.15474896 0.2167949
-0.25166857 -0.7583246 -0.34090564 -0.18271476 -0.514908 0.11924991 -0.3334567 -0.14308086
0.3099808 -0.6454301 -0.42773497 -0.25682154 0.03192093 0.0686193 -0.7699386 -0.22209668
-0.7079171 -0.12439786 -1.012294 -0.13970338 0.033563115 -0.03104464 0.15247893 0.30464548
0.16589047 -0.41700256 0.528798 0.16707365 0.36289036 0.19008358 0.34338856 0.4132119

decoder.2.weight f4 [128, 256]
00000000: 84c3 f43c 72d3 0b3d aa94 06bd fcb1 f83c
00000010: 38ba 243d 1e49 533d 2a38 38bd 119d 2bbd
00000020: 3c26 fabb 883d c6bc bb01 f9bc aa41 433d
00000030: 38d9 09bc b202 38bd 3c00 d8bd 571f c9bd
00000040: 78c3 54bd 2884 9ebc 0049 79bc 8091 bf3a
00000050: 9794 2bbd 13ef 5bbd 00d0 8aba a15a 0e3b
00000060: 1381 95bd 348f 5c3d 4006 b2bc cebb 5dbd
00000070: 8094 81bb f944 7cbd 9567 20bd f008 71bc
00000080: 749d 61bd 6426 0a3d 8e25 18bd 504a 883c
00000090: d4d8 ccbc 80bf 10bd 0493 cabc 4bdc edbd
000000a0: bce4 643d 901d 3bbd a64d 433d ad44 8cbd
000000b0: e8ff a5bc 5058 e6bd 7a01 6cbd 5e85 19bd
000000c0: d840 b23c faa0 623d 003c 6f3a ca2a b4bc
000000d0: 68a6 cbbd a24e dbbd 1a8f 47bd 40ab 98bc
000000e0: 8666 1f3d 33cf c7bd c81e 4a3c fcf3 b1bd
000000f0: c216 4c3d fe24 59bd 98e1 27bc 0042 bebb
00000100: 24c7 81bc 8c19 11bd 986e 07bd a0e7 34bc
00000110: 48b0 08bd b675 143d 4a51 eabd 923c 63bc
00000120: 945b 683d 5cd2 8fbc 2231 503d 564b 5ebd
00000130: c76e 91bd 9ce3 0dbd 3212 9dbc 009b 9739
00000140: 3017 493d c674 55bd 28f7 0d3c cb9c 8dbc
00000150: a013 523c b518 06bd 40df 5c3a 0be3 bdbd
00000160: 3578 eebd f831 7a3c b046 3c3c 8ee5 efbd
00000170: 9c63 9d3c 574d 0539 b65e a0bd e0ff 203b
00000180: 807d dd3c 3c70 aebd 5349 26bc c863 edbd
00000190: 995a a5bd ff72 86bd c008 a1bc 4f42 87bd
000001a0: 48cb 603c d1d2 91bd a8ac 0b3c 9015 b3bb
000001b0: 8016 6dba 573e 6bbd f048 8cbc a0c7 27bc
000001c0: a5e1 7abd c21a b5bd 8e6e 86bd c814 b63c
000001d0: 3c3b cabc 2cdc febc c414 61bd fa91 07bc
000001e0: 2360 7fba e269 95bc a622 4a3d 84e3 56bd
000001f0: 5c1c 5b3d 2068 6d3c ef9f 57bb 2030 ddbc
00000200: 3a91 6fbd f499 65bd 5eee 41bd 2aec ccbc
00000210: d197 c43a 2cd2 ccbc b60b 71bd 44b6 93bc
00000220: 6d0c a6bd b6a1 173d 68bb 423d 6712 70bd
00000230: 9a53 063d fc90 613d 00e4 ecb9 bcb3 4e3d
00000240: 29c9 70bd 18e6 ab3c 8eab 16bd 60a8 e73b
00000250: ebe6 1bbd 147f e73c 808d 113d cf05 0abd
00000260: f8fe 7bbd b82b d13c 8797 9bbc e865 223d
00000270: 7a31 1bbd 48cc e43c 3213 99bd 6844 77bc
00000280: e2fa 323d 4871 cfbd 66ad 7abd c35b ccbd
00000290: a847 773d 30b5 91bc 7019 c0bc d88f 63bc
000002a0: 0b3b 5ebd 20d3 5cbc e2ae f6bd ee68 60bd
000002b0: 6e08 9ebd b0cb c93c d4bd 58bd 5074 1abd
000002c0: 68b7 7fbd 4039 cbbb 809f 06bb b01c d73b
000002d0: 4ea3 75bd 47f2 b1bd 2d85 5bbd 4afc 0d3d
000002e0: ae31 45bd b03f f93b e048 63bc 4c4f efbc
000002f0: f679 a0bd 861e 483d b084 b9bb a38b 3bbc
00000300: 602f 41bc d483 893c bff4 46bd 248e 82bd
00000310: e84d ed3c ae31 0bbd 5ea8 39bd 7e44 42bd
00000320: c6c8 e0bd 4812 19bd b86e cabd e0a6 44bd
00000330: 182f 72bc 70b5 3b3d 0edd 283d 7acc b8bc
00000340: a74c 98bc 62f4 47bd d258 cebd 0076 1fbb
00000350: 3c18 0ebd e666 5ebd 44be 443d f3b7 bcbd
00000360: e0db 14bc 0df8 1dbd 34a6 b7bc 41b8 f9bd
00000370: 4895 7cbc c45a b33c 4211 4abc 2100 adbd
00000380: 9639 39bd d074 57bc f8db 0dbd c482 fc3c
00000390: 8818 103c 5968 8ebd f074 6d3d 94e5 fbbc
000003a0: 3b1f d9bc 00ab 6f3d 80b9 8d3c f64e 04bd
000003b0: 4f19 aabc bfc3 29bd 9c85 693d 48e8 75bd
000003c0: 00e3 1ebd 86f5 41bd f6bd 2dbd 483d 193c
000003d0: 3667 9fbd d404 ee3c 51b1 f8bd 0931 0cbd
000003e0: 632c 97bb 5044 7e3d 10a0 a0bd a8da c7bd
000003f0: 55d1 86bd 6459 62bd 8590 1fbd c890 babd
0.029878385 0.034137197 -0.03285662 0.030358307 0.040216655 0.0515834 -0.044975437 -0.041897837
-0.0076339524 -0.024199262 -0.030396333 0.047670044 -0.008413605 -0.044924445 -0.1054692 -0.09820431
-0.051944226 -0.019350126 -0.015215158 0.0014615506 -0.041889753 -0.053694796 -0.0010590553 0.00217215
-0.073000096 0.053847507 -0.021731496 -0.054134183 -0.00395447 -0.061589215 -0.039161284 -0.0147116035
-0.0550818 0.03372802 -0.03714519 0.016636997 -0.025005735 -0.03533888 -0.024728306 -0.11614283
0.0558822 -0.04568249 0.047681473 -0.06849036 -0.020263627 -0.11247313 -0.057618596 -0.037480704
0.021759436 0.0553293 0.0009126067 -0.02199306 -0.09943849 -0.107083574 -0.048720457 -0.018636346
0.038916133 -0.09756317 0.01233644 -0.086891145 0.04982639 -0.053013794 -0.010246657 -0.0058062077
-0.015842028 -0.035424754 -0.033064455 -0.011041552 -0.03337124 0.03624507 -0.11441286 -0.013869422
0.05672796 -0.017556362 0.050828107 -0.054271065 -0.07101207 -0.034640893 -0.019173715 0.00028916448
0.04909438 -0.052113317 0.008664884 -0.017286679 0.012822062 -0.032738406 0.0008425601 -0.09271821
-0.116440214 0.015270703 0.011491463 -0.11713706 0.019212537 0.0001271268 -0.07830565 0.0024566576
0.027037382 -0.08517501 -0.010149318 -0.115912974 -0.08073921 -0.065649025 -0.019657493 -0.06604444
0.013720341 -0.07120288 0.008525051 -0.005465217 -0.0009044185 -0.0574325 -0.017124623 -0.010240465
-0.061250348 -0.08842994 -0.065640554 0.022226706 -0.024686448 -0.031110846 -0.054951444 -0.00827455
-0.00097418035 -0.018238965 0.04934945 -0.05246307 0.053493842 0.014490157 -0.0032901724 -0.027000487
-0.05848811 -0.056055024 -0.047346465 -0.025014956 0.0014998858 -0.025002562 -0.05884906 -0.018031247
-0.08107839 0.037019454 0.047542006 -0.0586113 0.032794572 0.05506991 -0.000451833 0.050464377
-0.05878559 0.02098374 -0.0367847 0.0070696324 -0.038062017 0.028258838 0.035535336 -0.033696946
-0.061522454 0.025533542 -0.018993152 0.039647967 -0.03788898 0.02792944 -0.07474364 -0.015091993
0.04369629 -0.101290286 -0.061200522 -0.0997844 0.06037107 -0.017786592 -0.02344963 -0.0138892755
-0.054255527 -0.0134780705 -0.12045075 -0.05478757 -0.077164516 0.024633259 -0.05291541 -0.03770858
-0.06243077 -0.006201893 -0.0020541847 0.006564699 -0.059970193 -0.08688789 -0.053593803 0.03466443
-0.04814308 0.007606469 -0.013872355 -0.029212616 -0.07835762 0.048857234 -0.0056615695 -0.011446866
-0.01179108 0.016786493 -0.04857325 -0.063747674 0.028967813 -0.033982925 -0.045326583 -0.0474286
-0.109757945 -0.03737095 -0.09884399 -0.048010707 -0.014781736 0.04582733 0.04122644 -0.02255844
-0.018591238 -0.048817046 -0.10075535 -0.0024331808 -0.03469108 -0.05429735 0.048033014 -0.09214773
-0.009085625 -0.038566638 -0.022418119 -0.12193347 -0.015416451 0.021893866 -0.012333216 -0.0844729
-0.045220934 -0.013150409 -0.034633607 0.030824073 0.008794911 -0.069534965 0.05797285 -0.03074912
-0.02650415 0.058512688 0.017300367 -0.032301866 -0.020764021 -0.041446444 0.057012185 -0.060035974
-0.038790703 -0.04735329 -0.04241749 0.0093529895 -0.07783358 0.029055037 -0.121431954 -0.03422645
-0.0046134456 0.062076867 -0.078430295 -0.09758502 -0.06582896 -0.05526103 -0.038956184 -0.09109646

decoder.2.bias f4 [128]
00000000: 7721 09bd dc4c 14bd 8085 c6bd fe32 01bb
00000010: 8e43 a1bc 5a5b c7bd 4c50 6cbd 3e5a 56bd
00000020: 9632 83bc a044 3bbd 30ff ecbd 2bb8 27bd
00000030: 95f2 35bd a20f e0bd 61dd 72bc a32e 9bbd
00000040: f604 443c e932 97bd f8d9 b8bc 1b10 9dbd
00000050: d5ba d9bd 148c bbbc e053 573c 03ce 1e3a
00000060: 6ad2 afbd 7d34 01bd 1f72 ebbd 6028 67bc
00000070: d11c dcbd 4a10 aa3c 4346 6bbd 0817 723c
00000080: 1d47 69bd c20b 08bd 1b83 0c3a e636 04bd
00000090: 1f08 53bd 6420 883b a8d7 9ebd 854f 17bd
000000a0: 257e f3bc 0194 d4bd c13a e4bd 01a8 83bd
000000b0: 7461 08bc 3711 5fbd 2f12 253d 0e9c 8bbd
000000c0: 06ec cdbd 8144 9fbd 7f58 bebd 1e3d 5ebd
000000d0: 8a6a 36bd 050d ccbd 5b47 9abd 476a 07bd
000000e0: dfc4 b4bd 19fc 87bd 4d91 64bd d45f 4bbd
000000f0: 6000 febc 58b2 503b 84b9 2fbd f1de 7bbd
00000100: 00d8 06bd 8f2c b8bd d6ed 29bd c7b4 c2bd
00000110: aa68 a0bd c0ae ad3b f41e 76bb f4be f73a
00000120: 082e 88bd d2e8 82bc 2432 08bd 28f4 2dbc
00000130: ff28 2cbd cde8 4abd 26cd 20bd 04aa 75bd
00000140: 041a 02bd 95af d5bc d974 72bd 4188 92bd
00000150: 2b4b 463c 9c96 ac3c c9b0 3dbd 4e02 1abc
00000160: 3e29 d2bd e541 83bd 237d dbbd 18bf d2bd
00000170: 607b 32bd 15b0 e6bc 4a5c 2bbc 95cc 99bd
00000180: 5cf3 8dbd ede1 ddbc 9347 33bd 6eb4 00bd
00000190: 741e a4bc f892 233c c80c 02bd 77ee 3c3c
000001a0: 7bef a33c 4cc9 84bd 6a09 a4bd fe3c 4ebd
000001b0: 9d0a 6ebd f023 86bd 9547 acbd 3570 53bd
000001c0: c3e3 dabd 5882 93bd de45 82bd a479 25bd
000001d0: a9ba efbd f189 1cbd 98e8 55bc a267 6abc
000001e0: b5ef edbb 0a88 71bc 7a99 373b 31bb 53bd
000001f0: 3c38 c4bd 5dd6 b8bc 92e6 51bd d040 91bd
-0.03347918 -0.03620611 -0.09693432 -0.0019714232 -0.019685533 -0.09734221 -0.057693765 -0.052332155
-0.016015332 -0.045719743 -0.11572111 -0.04094712 -0.044420797 -0.10940482 -0.014823289 -0.075772546
0.011964073 -0.07382757 -0.022564873 -0.076690875 -0.106313385 -0.022893943 0.013142556 0.000605792
-0.08585055 -0.031544197 -0.11496376 -0.014108747 -0.10747684 0.02075972 -0.057440054 0.014775999
-0.056952585 -0.033214338 0.00053601124 -0.032278918 -0.051521417 0.004154252 -0.07755977 -0.03694107
-0.029723236 -0.10379792 -0.11144019 -0.064285286 -0.008324016 -0.054459777 0.040300544 -0.068168744
-0.100547835 -0.07776738 -0.09294223 -0.054257505 -0.044535197 -0.09963421 -0.07533141 -0.03306034
-0.08826613 -0.06639881 -0.055802632 -0.049651936 -0.031006038 0.0031844582 -0.04290153 -0.06149191
-0.032920837 -0.08992874 -0.041486584 -0.09507137 -0.07832463 0.005300373 -0.003755507 0.0018901513
-0.06649405 -0.015980158 -0.033250943 -0.010617293 -0.042031284 -0.049538422 -0.039258145 -0.059976593
-0.03176309 -0.0260847 -0.059193466 -0.071548946 0.012102882 0.02106791 -0.046311174 -0.009399964
-0.102617726 -0.06409053 -0.10717227 -0.102903545 -0.04357469 -0.028160134 -0.010459015 -0.07509724
-0.06931183 -0.027085269 -0.04376943 -0.03142207 -0.020034052 0.009983771 -0.03175047 0.011531464
0.020011654 -0.06483707 -0.08009608 -0.050351135 -0.05811559 -0.06549823 -0.08412091 -0.05162068
-0.10687973 -0.072025955 -0.06360982 -0.04039921 -0.117055245 -0.03821749 -0.013055943 -0.014306935
-0.0072612413 -0.014741907 0.0028015063 -0.05169219 -0.09581038 -0.022563154 -0.05124528 -0.0709244
