model/triplet_autoencoder_9714.pth (torch, 401666 bytes, 12 tensors)

encoder.0.weight f4 [128, 120]
000000 20 5b 58 be e1 24 51 3e a0 7e b9 bc 65 bb df bd
       -0.21128511 0.20424224 -0.022643387 -0.109244145
000010 ee 63 c6 3d 53 dc 10 3e 85 58 19 bf 96 67 68 3e
       0.09687029 0.14146547 -0.59900695 0.22695765
000020 96 3f 40 3e 53 7a cf bf 2d a5 c9 3e e9 c8 4b 3e
       0.18774256 -1.6209205 0.39383832 0.1990086
000030 36 7b be be 1b 5e 93 bd 88 29 51 3e 09 ec 86 be
       -0.37203377 -0.071956836 0.20425999 -0.26351956
000040 76 44 63 bd 86 6d dd bb 06 a8 65 be 66 4e 4d 3d
       -0.05548521 -0.006757441 -0.22427377 0.050123595
000050 30 6b 63 3e ee 5a 9e be 6b b4 a3 3d 7c 7e 3f bd
       0.22208858 -0.3092875 0.07993396 -0.046751484
000060 df ad 6c be 33 51 c8 3d c5 be 27 3e e9 ee 13 3e
       -0.23113202 0.097811125 0.16381367 0.14446606
000070 39 32 e4 3d 5b e2 3d bd 23 e6 a8 3e 70 49 f9 bc
       0.11142392 -0.046358448 0.3298808 -0.030430526
000080 98 02 19 3d 34 07 e6 3d 8d 78 40 bd 87 a2 a0 3a
       0.03735599 0.11231843 -0.046989966 0.0012255468
000090 89 fd db 3d 79 ad 15 bd 41 74 cf bd 41 7b fd 3e
       0.10741717 -0.03654239 -0.101295955 0.49508098
0000a0 de 3c 1e 3e c2 c7 c3 bc 62 28 d9 3e d1 c4 4c 3e
       0.15452906 -0.023898963 0.42413622 0.19996955
0000b0 0c 17 20 3d dc 16 cd 3c f4 eb ff 3d 62 62 e9 bd
       0.03908448 0.025035314 0.12496176 -0.11395718
0000c0 3c 32 7e 3e 93 bb 10 3d ad 07 97 be 61 09 22 3f
       0.2482385 0.035335135 -0.29498044 0.6329556
0000d0 5c f3 82 3e 30 84 81 bd 73 a5 4f 3f 41 98 09 3e
       0.25576293 -0.06324041 0.8111183 0.13436987
0000e0 c5 98 ad bd 64 ca 26 3f 05 f0 af bd cc 03 f4 bd
       -0.08476404 0.65152574 -0.08590702 -0.11914787
0000f0 81 6e 40 3e 56 f0 03 3d d2 d4 86 3e c5 54 b5 bf
       0.18792154 0.032211624 0.26334244 -1.4166495
000100 70 d1 e5 3e c2 c5 0f 3f df e1 78 c0 02 84 06 3f
       0.4488635 0.5616113 -3.888786 0.5254518
000110 6c 96 c4 be bf b4 ff 3f 3d 73 94 bf 81 52 48 3b
       -0.38396013 1.9977034 -1.1597668 0.0030566754
000120 2f 12 c0 be 5c dc 3e bd 79 b9 99 3d 51 f2 a3 3e
       -0.37513873 -0.04659687 0.07506079 0.3202081
000130 c3 2b 22 3e 87 7b bd 3e ad e8 66 be 23 09 a6 be
       0.15837006 0.37008306 -0.22549696 -0.32428846
000140 78 f1 e5 be ca 8f 7b 3e 70 df 4f 3d 71 a3 47 3e
       -0.4491079 0.2456657 0.050750196 0.19495942
000150 b3 7e bb 3e 8d 6e 1c 3c d8 48 e8 bd cd ae a6 3e
       0.366201 0.009547842 -0.11342019 0.32555237
000160 50 42 88 be d0 b6 72 3d f5 39 0c bf a6 18 68 bf
       -0.26613092 0.059256375 -0.54775935 -0.9066261
000170 14 07 1b be 2d 9d 17 be 4b 15 c8 3d cf 61 f9 3d
       -0.15139419 -0.14806052 0.09769686 0.12176859
000180 3c 9f f9 3e e4 29 3a 3e d6 50 eb bd 48 36 13 bf
       0.487543 0.18180043 -0.114900276 -0.575047
000190 ac 54 20 bc fa 05 36 3d 49 1c b8 bf 99 2c a9 be
       -0.009785812 0.044439293 -1.4383632 -0.33041838
0001a0 26 68 c3 3d dc 1d af 3e 8b e8 b4 bd 86 26 15 be
       0.09541349 0.34202468 -0.088334166 -0.14565477
0001b0 99 93 11 3f 9f c1 af 3d cc 94 70 be 44 cc e8 3e
       0.5686584 0.08581852 -0.23494262 0.45468342
0001c0 16 13 dd be 94 ff d1 bd a1 6b 91 be 07 9b 24 bf
       -0.43178624 -0.10253826 -0.28402427 -0.6429905
0001d0 91 d6 10 3e 3a bd 2d bf f5 31 89 3d 48 d9 55 3e
       0.1414435 -0.6786686 0.06698982 0.20883667
0001e0 d6 0d e4 3d 54 47 6f 3b 89 a7 ff 3e 0b 1b 4e 3d
       0.111354515 0.003651102 0.49932507 0.05031876
0001f0 45 54 95 bb 4c 9b f0 3e 98 bc 8f bc 1b bb a1 3d
       -0.004557165 0.46993482 -0.017545983 0.07897016
000200 e5 af 49 3e 5b ad d9 bd db 59 e8 3b 6d 2c 69 3e
       0.19696005 -0.10628768 0.0070907897 0.22770853
000210 c7 c4 e1 3d a8 31 61 3d dd a3 ad 3d 94 10 28 3e
       0.110238604 0.054978997 0.0847852 0.16412574
000220 27 9d a6 3d de 2d 88 bd 4c e3 20 3d 16 4a 4e be
       0.08135443 -0.066493735 0.039279267 -0.20145449
000230 eb 0b c3 3c 2e fb 38 be c1 37 ab be d5 f5 6c 3d
       0.023809394 -0.18064567 -0.33440974 0.05785163
000240 c1 2e 12 3e f9 eb c3 3d dc dd 68 be ae b2 d4 bb
       0.14275648 0.095664926 -0.22740883 -0.006491027
000250 26 5a c3 bd da 2d 0a 3d d8 f5 14 be b8 b7 60 be
       -0.09538679 0.033735134 -0.14546907 -0.21945083
000260 a9 0b 34 3d 10 6b 75 be de 84 3c be c0 e1 ea bc
       0.043956432 -0.23966622 -0.1841006 -0.0286721
000270 09 4d 76 bd 42 4a a2 3d c3 8d 48 be 73 f4 4f 3a
       -0.06013206 0.0792432 -0.19585328 0.0007932849
000280 53 66 f0 bc 2c 3c f2 3d 8e d0 44 3d 24 f4 c2 bd
       -0.029345667 0.11827883 0.048050456 -0.095192224
000290 dc 77 2b 3e 6d ef 19 3e 1a 07 f3 3d b4 db 97 3e
       0.16744941 0.1503274 0.11866589 0.29659808
0002a0 fe f0 47 bd 4c 79 ee 3c dc 23 78 be 8b b3 7d bb
       -0.048813812 0.029110573 -0.2423243 -0.0038711752
0002b0 68 67 e1 bd f2 55 2d be 5a 36 55 3d ba 2e 9b bd
       -0.11006051 -0.16927317 0.052053787 -0.07577272
0002c0 f8 1d ef bb 26 da 1b 3e 28 b5 1d 3d db 5e 00 3e
       -0.0072972737 0.15219936 0.038502842 0.12536184
0002d0 82 db 5e bb d3 80 85 3d 3c 7a c0 3e d3 6b 5d be
       -0.0034005349 0.06518712 0.37593257 -0.21623163
0002e0 a9 66 72 3d 8d d0 13 3d 48 4b 00 bf f1 7a 2a 3e
       0.059179936 0.03608756 -0.5011487 0.16648461
0002f0 b5 88 fe bc 60 0c d5 3e 4e 13 8e be 90 7c 80 be
       -0.031071046 0.41611004 -0.27749103 -0.25095034
000300 a8 14 43 bc 7a 01 96 bd 2d 4d 88 be 13 83 43 bf
       -0.01190678 -0.073245004 -0.2662138 -0.7637188
000310 a7 dd 20 bf ae ca d7 bb 6e 29 23 bf 33 5b 48 bf
       -0.62838215 -0.0065854406 -0.6373509 -0.7826416
000320 17 d2 63 be 7e b7 8b 3e ce 01 16 3f bc c1 0c bc
       -0.22248112 0.2728843 0.58596504 -0.008591112
000330 d8 b0 23 be 35 b0 38 be f4 e9 21 bd 6a e2 53 bf
       -0.1598543 -0.18035968 -0.039529756 -0.82767355
000340 34 97 85 be ab da ed 3d db 65 0d bf e8 de b1 3d
       -0.2609192 0.11613973 -0.55233544 0.08685094
000350 ba 9e 04 be 0b 37 b8 3e 48 5e e7 3d c1 e8 a9 be
       -0.12951174 0.35979494 0.112972796 -0.3318539
000360 6e 21 eb bd 32 89 40 be df 4b 5e be 48 a5 dc 3d
       -0.114809856 -0.18802336 -0.2170863 0.107737124
000370 b7 87 80 3e 57 29 15 3f f5 75 d2 3e 67 fa 08 3f
       0.25103542 0.58266205 0.4110562 0.53507084
000380 bd 35 6b 3e 1f 3f 08 3c f5 64 45 be 07 46 2d bf
       0.22969718 0.0083158305 -0.19276793 -0.6768498
000390 8b d4 65 bd 69 2d 78 be 07 86 d4 be 23 40 69 3e
       -0.0561109 -0.24236073 -0.41508505 0.22778372
0003a0 44 b0 3c 3d 89 fe 37 3f 91 96 a4 3e 9b 0f f2 3e
       0.046066537 0.71872765 0.32146123 0.4727753
0003b0 ba c2 16 bd e6 22 22 be 5b fd 1f bc c4 92 b9 3d
       -0.0368068 -0.15833625 -0.0097649945 0.090611964
0003c0 cd be 11 3c cc 2a a2 3e 63 21 69 bd 20 b0 cb 3d
       0.008895588 0.31673276 -0.056916606 0.099457026
0003d0 fe aa 1d 3e b4 5e 22 3e a8 e2 bd 3c 8d f7 9f 3d
       0.1539726 0.15856439 0.023179367 0.078108884
0003e0 d0 d9 d3 3d 71 05 12 3e c8 05 c8 3d 0f bd 21 3d
       0.10344279 0.14259888 0.09766728 0.03948694
0003f0 36 da be bd 43 ea 12 3e 3b d5 fa 3c 95 0a 5c 3d
       -0.09318964 0.14347176 0.030619254 0.05372103

encoder.0.bias f4 [128]
000000 ba 8c 2a 3d a6 ed 86 be c3 41 23 be 91 42 2d be
       0.041638114 -0.26353186 -0.15943055 -0.16919924
000010 05 39 12 be 8d a5 97 be 32 eb 59 be 7a ad 52 be
       -0.14279564 -0.29618493 -0.21281126 -0.20573989
000020 07 47 32 be e6 2d 39 be c8 70 4f be 97 f1 0b 3d
       -0.17409907 -0.18083915 -0.20257866 0.034165945
000030 c2 a7 41 be 9e 54 91 bd 53 8e 9d bd 4e 47 b9 bd
       -0.18911651 -0.070962176 -0.07693162 -0.090468034
000040 9f cb 42 be f4 6a 03 be e1 bd 1a bf 97 38 d6 bd
       -0.19022988 -0.12833768 -0.6044598 -0.104600124
000050 b4 f4 4b be 3c 97 13 be e0 5f 19 be 3b 6e 06 be
       -0.19917566 -0.1441316 -0.1497798 -0.13127987
000060 5d 0c 72 be cb 47 80 be 72 d3 c2 be 57 9d 56 bd
       -0.23637529 -0.25054774 -0.38051945 -0.052396145
000070 57 bd 9f bd b3 47 84 be 05 ca 81 be 0d 87 c6 be
       -0.077997856 -0.25835952 -0.2534944 -0.3877491
000080 4b fe 95 bd 48 02 5a be 0c c7 b8 bd a3 d2 31 be
       -0.07323893 -0.21289933 -0.0902234 -0.17365508
000090 e7 c9 4e be 62 ce 86 bd 03 17 6d be db 92 aa 3d
       -0.20194207 -0.06582333 -0.2315331 0.08328792
0000a0 82 3e 68 bd 80 c5 88 bd c2 2a d9 bd 43 20 8d be
       -0.056700237 -0.06678295 -0.106038585 -0.27563676
0000b0 ac 95 12 be 37 c0 0e be 8a 61 e4 bd e3 89 90 bd
       -0.14314908 -0.13940512 -0.111514166 -0.0705755
0000c0 70 06 ed bd ba d7 45 be b5 9a 23 be 97 b8 96 bd
       -0.115734935 -0.19320574 -0.15976985 -0.073594265
0000d0 b2 03 20 be 14 cd 0a be 0a 3a 4b be 35 e6 86 bd
       -0.1562641 -0.13554794 -0.19846359 -0.06586877
0000e0 83 3c 58 be 49 fc ea bd 6d 63 31 3d c1 97 71 be
       -0.21116833 -0.11473901 0.04330771 -0.23593046
0000f0 7d 96 00 3e c2 d6 91 be c0 5d e5 bd 40 04 d3 bc
       0.12557407 -0.2848416 -0.11199522 -0.025758862
000100 bb 43 38 be 8d 90 31 be 1e c8 7c bd 81 cc 5f be
       -0.17994587 -0.17340298 -0.061714284 -0.21855356
000110 0d 4a b4 bd 43 be 51 be 0c a3 eb bd 3d 03 94 bd
       -0.088031866 -0.20482735 -0.11505708 -0.0722718
000120 7e 8e 3e be ff b1 1d be 35 94 1a be 98 87 9a be
       -0.18609044 -0.15399931 -0.15095599 -0.30181575
000130 79 bb fe bd a7 40 21 be 28 69 30 be 09 42 8a bd
       -0.12438101 -0.15747319 -0.17227614 -0.067508765
000140 f0 b8 25 be 18 dc 3f be 59 77 ff bc 26 9a 4a be
       -0.1618383 -0.18736303 -0.03118484 -0.19785365
000150 93 2a a8 bd 4c d6 a4 bc b5 72 79 be a2 d6 b9 bd
       -0.082112454 -0.020121716 -0.24360164 -0.09074141
000160 c6 2b 8a be 0b be 96 bd 13 9d a0 be 97 bc 8c be
       -0.2698652 -0.073604666 -0.31369838 -0.27487633
000170 a2 6f d2 bd f0 08 cc bd 65 33 50 bd 1f 75 75 be
       -0.102751985 -0.09962642 -0.050830264 -0.2397046
000180 d6 30 01 be 40 cc d1 bd 59 4e 32 be a9 c9 b1 bd
       -0.12616286 -0.10244036 -0.174127 -0.08681042
000190 08 68 52 be 7e 22 d7 bd 3c 5d 6b be db 92 7a be
       -0.20547497 -0.10504626 -0.22984785 -0.24470083
0001a0 30 c4 90 be 78 e0 35 bd 4d 63 17 be 12 f1 12 be
       -0.2827468 -0.044403523 -0.14783974 -0.14349774
0001b0 32 65 34 be 9d a7 80 be d5 2f 3a be f7 db ad bd
       -0.17616728 -0.2512788 -0.18182309 -0.084892206
0001c0 8b 94 02 be aa e1 81 bd fa 99 d9 bd d6 8c 89 be
       -0.12751977 -0.0634187 -0.10625072 -0.26865262
0001d0 5c 17 7a be d2 c1 63 be 12 35 92 bd 03 1e 61 be
       -0.24422973 -0.22241905 -0.071390286 -0.21984105
0001e0 3c b8 ee 3c 92 02 c1 3d ec bf 95 bd 39 2d 9e be
       0.029140584 0.094243184 -0.07311997 -0.30893877
0001f0 84 91 93 be cf d7 88 be 05 96 1a 3e f2 88 1c be
       -0.28821957 -0.2672715 0.1509629 -0.15286615

encoder.2.weight f4 [256, 128]
000000 71 93 d7 be 6d 5d 5b be 10 24 e2 3c 1e 59 b9 3e
       -0.42104676 -0.21422358 0.027605087 0.36200804
000010 0f 4c e0 3d 29 68 14 be 6a c2 49 bc d2 2b 2d bd
       0.10952007 -0.14492859 -0.012314418 -0.04227812
000020 a4 25 eb 3b 66 ba 3d bf ce 7f 96 bd be d3 0d bd
       0.007176118 -0.74112546 -0.073485956 -0.03462576
000030 9b 25 86 bc f2 5a 26 3d 72 4b cd 3d d8 0e 8c bd
       -0.016375354 0.040614076 0.10024156 -0.06838769
000040 92 91 8a bd 54 11 a1 bd 77 ea d1 3e 96 bb 8a bd
       -0.067660466 -0.07864633 0.40999195 -0.067740604
000050 68 b9 80 bd 63 64 49 bc 1b 6e 85 bc f9 1d f1 3d
       -0.062853634 -0.012292 -0.016287854 0.11773295
000060 8a 8f 97 bd 62 07 c7 3d 26 26 74 be 88 ba 45 3d
       -0.07400425 0.09718205 -0.23842677 0.048273593
000070 bb 5b d1 3c 49 66 c1 bc 2a 38 d0 3d 46 66 05 bf
       0.025556436 -0.023608344 0.101669624 -0.5210918
000080 4e 1a 43 bd 1b 0d a5 3d 2a c6 1b bc d7 45 3e be
       -0.047632508 0.0805914 -0.009507695 -0.1858133
000090 5f 8a c0 be e4 90 bc bc 6c 53 09 be ff 72 2a be
       -0.3760557 -0.023018308 -0.13410729 -0.1664543
0000a0 fa be 3e 3d b3 be 75 bd b6 d3 25 3d fa 94 bd 3d
       0.04656885 -0.059996318 0.040485106 0.09256931
0000b0 6d 23 70 3d 25 c6 52 be a9 40 0b be d2 44 59 bd
       0.058627535 -0.20583399 -0.13598885 -0.053044148
0000c0 03 dc 17 bc 0d 1e 09 3e 02 e8 dd 3b 8a d5 af bd
       -0.0092687635 0.1339037 0.0067720423 -0.08585651
0000d0 da 5c b4 be 00 26 ce bd 2c fa 1d 3e 52 3d 8d 3d
       -0.3522709 -0.10065842 0.15427464 0.068964615
0000e0 73 b4 1d bd 8d 4e 21 3d e8 36 00 bf c6 25 71 3d
       -0.038502168 0.039381552 -0.5008378 0.058873914
0000f0 2a 99 9b 3e d2 51 13 3d 94 64 1f bf c9 e6 ec 3c
       0.30390292 0.0359667 -0.62262845 0.02891864
000100 d7 41 d1 bd 86 e5 2e be ce 05 4f 3d e7 b5 7c 3c
       -0.10217636 -0.17079744 0.050542645 0.015424228
000110 dc 4a bd bc 6b 73 66 bd 5d b7 66 3c 14 b3 c6 3d
       -0.023106985 -0.056262415 0.014081803 0.09702125
000120 7b 71 30 be 3a f1 bc be d8 4f 8f 3c 28 ba b1 3d
       -0.1723079 -0.3690279 0.017494127 0.086780846
000130 db 69 02 be fa 43 18 3e c5 02 9b 3d 72 2a 7b 3d
       -0.12735693 0.14869681 0.075688876 0.061319776
000140 3f 40 a3 bd a2 e6 15 3d 3c e0 05 3e cb 56 26 3e
       -0.07971238 0.0365969 0.1307382 0.16244046
000150 a6 4e e3 3d d7 fc 83 bd 16 a7 5f bd c9 8a 08 bd
       0.110989854 -0.0644471 -0.054602705 -0.03333548
000160 4d b5 ed bc b2 1d 39 3d 21 15 1c 3e 96 d3 4f be
       -0.029017115 0.045194335 0.15242435 -0.20295557
000170 d3 0f a5 bd 86 1d 5b 3d 22 dc ac bd a9 5c be bd
       -0.08059659 0.053494953 -0.084404245 -0.09295017
000180 11 ac 09 be ed e1 cf 3c 30 6a b9 ba 84 0f a9 3c
       -0.13444544 0.025376284 -0.0014146026 0.020637281
000190 be 2e e9 bd 5e 25 b6 3d 07 82 ae bd 6a 36 29 3d
       -0.113858685 0.08893846 -0.085208945 0.04131166
0001a0 b7 5b 44 3e 27 b8 0b be 6d 31 75 3c d9 ba 50 be
       0.19175611 -0.13644467 0.014965397 -0.20383777
0001b0 25 68 63 3d 78 a5 86 ba dc bb 2f bd 91 3b 57 3d
       0.05551924 -0.0010272702 -0.042903766 0.05254704
0001c0 37 7c af bd c6 dd 51 bd 26 9a c4 bc 40 de da bd
       -0.08568614 -0.05123689 -0.023999285 -0.10686922
0001d0 f7 9b 1d be 18 ef 79 be c1 74 98 3d d6 1e 3d bc
       -0.15391527 -0.24407613 0.07444144 -0.011542996
0001e0 83 46 0f bf 49 c9 b8 bd 1e 93 ab bd 50 a6 cb be
       -0.5596697 -0.09022767 -0.0837767 -0.39775324
0001f0 6d fa 37 be 8c 17 48 be 06 89 4b be 8b d9 96 be
       -0.17966624 -0.19540232 -0.19876489 -0.29462847
000200 0a 2e 07 be 7f e4 0f bd 5c ea 8b bd 0b d9 a5 bd
       -0.13201156 -0.03513002 -0.0683181 -0.08098038
000210 58 27 af bd a2 41 ec bd d7 8f 03 3b bf 7f 1d 3e
       -0.08552426 -0.11535956 0.002007475 0.15380763
000220 2a 86 31 be 00 99 ec be ce 2f 32 3c 8a 68 4d bd
       -0.17336336 -0.4621048 0.010875655 -0.050148524
000230 9c 1c f9 3d be c0 5f 3d c2 62 24 bd 90 49 f1 3b
       0.1216366 0.054627173 -0.040133245 0.0073635057
000240 42 7f ed 3d cf 50 99 bb 9d da 9c 3e 61 37 19 3d
       0.11596538 -0.0046788226 0.3063554 0.03740633
000250 cf 9b 6c bd eb e7 65 bc 15 6a b3 3c 59 89 8c bd
       -0.05776578 -0.014032344 0.02190117 -0.068621345
000260 f0 54 19 be 6f ab 9b 3d fe 90 22 be 51 b7 6f bd
       -0.14973807 0.07601058 -0.15875623 -0.058524434
000270 7c 3f 67 bc 94 85 4c bd 5c d0 9d 3d cf 55 b5 bc
       -0.014114257 -0.049932078 0.07705757 -0.022135643
000280 04 e2 61 be 99 60 6b 3d 19 c2 d8 3c 3d ec 61 3a
       -0.22058874 0.05746517 0.02645974 0.0008618271
000290 13 54 17 be d7 ab 80 3d 86 a3 28 bd e4 3e 4f be
       -0.14778166 0.06282776 -0.041171573 -0.20238835
0002a0 ff e0 b0 3d 8d 26 54 bd 0f 77 85 3d 3f 38 0d bd
       0.086366646 -0.051794577 0.06516849 -0.03447747
0002b0 92 94 10 3e 48 ce 13 bd 9c 37 89 be 2b 18 4a 3d
       0.14119175 -0.036085397 -0.2680024 0.049339455
0002c0 81 43 06 bd 6e 33 f5 3c f2 88 13 bd af 87 a1 3d
       -0.03277922 0.02993175 -0.036019273 0.07887208
0002d0 06 2b c2 bd 86 b8 29 bb 4f 23 f9 3b 06 f2 3e 3d
       -0.09480862 -0.0025897338 0.007603086 0.04661753
0002e0 8d da 22 3d f7 65 a2 bd 3a c3 ef bd 8b ad 14 be
       0.039759208 -0.079296045 -0.117071584 -0.14519326
0002f0 93 1a 0c 3e f4 38 ca 3d 23 53 44 3d c1 94 59 bd
       0.13682012 0.09874144 0.047930848 -0.05312038
000300 72 b0 d8 bd d8 54 ae bd d8 39 85 bd be 9f 67 3d
       -0.10580529 -0.085122764 -0.065051734 0.056548826
000310 77 12 87 bd be 80 d0 bb 08 77 5f be 77 54 f4 bc
       -0.06595319 -0.0063630035 -0.2182275 -0.029825432
000320 ad 06 85 be a4 f4 b7 bc 5e 81 df 3d 9a af e2 3d
       -0.25981656 -0.02245552 0.10913347 0.110686496
000330 ef 30 45 be 5b a0 d3 3d 25 02 83 3d 8a f5 24 3d
       -0.19256948 0.1033332 0.063968934 0.040273227
000340 0d 56 37 be ef 30 2d be ef 35 a6 3d 02 b0 e6 bd
       -0.1790392 -0.16913198 0.08115756 -0.112640396
000350 7b dd 68 be 34 26 22 3e 74 c1 a1 3d 3a e6 58 3d
       -0.22740738 0.15834886 0.078982264 0.052953936
000360 a2 dd a2 bc dc f7 85 bd 9b 7d 1f 3d fd 47 13 be
       -0.019881073 -0.06541416 0.038938146 -0.1438293
000370 ec e7 d3 bd 70 5c 41 bc 00 59 c4 39 db 6b 83 3d
       -0.1034697 -0.011801824 0.00037450343 0.06417056
000380 1c a8 41 be af 7b ca 3d 7d cc 46 bd e0 e0 27 bc
       -0.18911785 0.09886872 -0.04853486 -0.0102464855
000390 b6 47 08 bc 57 b6 9b bb 67 24 f8 bd 72 75 02 3c
       -0.0083178785 -0.004751961 -0.12116318 0.007962571
0003a0 45 3c b7 be 3a 0e 06 be 9d f6 a3 3d 21 ab b1 bd
       -0.3578817 -0.13091365 0.08006022 -0.086752184
0003b0 c4 2d 97 3d ec 1f 38 bd 67 6b 8f be 4a 6b 03 bd
       0.07381776 -0.044952318 -0.2801163 -0.03208474
0003c0 2f 54 c8 3d cc 6e cd 3c 6e fb e0 bc 16 fb 12 bc
       0.09781682 0.025077246 -0.027463641 -0.008970996
0003d0 d0 df ec 3c 86 20 1c be b0 f9 3f bc b9 fb 9c bb
       0.028915316 -0.15246782 -0.011717245 -0.00479075
0003e0 eb 33 da be fd 6b 24 be 1e dd 11 3d 9f d9 c8 bd
       -0.42617735 -0.1605682 0.035611264 -0.09807133
0003f0 8e 2b d1 bd 3e 17 03 be 41 31 d7 3c 8f 2d 02 be
       -0.102133855 -0.12801835 0.026268603 -0.12712692

encoder.2.bias f4 [256]
000000 6d 45 77 3e 0b 4a 01 3d d1 63 92 3e 56 19 5b bd
       0.24147578 0.031564754 0.2859178 -0.05349096
000010 f9 82 fc bd 61 2c b9 3d b7 ec 39 3c 2d 08 0e be
       -0.123296686 0.09041668 0.011347941 -0.13870306
000020 4b 99 2b 3e d5 c7 72 be c1 f3 e5 bd 8c 8e 23 3d
       0.16757695 -0.23709042 -0.11228133 0.039930865
000030 93 71 20 be b9 47 e4 3e 7d 47 9b 3d e6 f6 0b be
       -0.15668325 0.4458597 0.07581995 -0.13668403
000040 1f af 2c 3f 1d c5 2f be 09 36 03 bd a6 50 da bd
       0.67454714 -0.17165036 -0.032033954 -0.10659914
000050 16 d0 a9 3c 90 72 6b bd 49 4c e3 3e ab 02 3f be
       0.020729106 -0.057482302 0.44394138 -0.18653361
000060 f2 15 9b 3e 01 19 92 bd f6 0a c0 bc 69 95 62 3d
       0.3029018 -0.07133675 -0.023442727 0.05531827
000070 21 ed 64 be 96 ca f6 3d a2 2b 08 3b be c5 b3 3e
       -0.22356082 0.12050359 0.002077796 0.35111803
000080 ee 80 d9 3d 16 d7 1c be d1 10 99 bd 8c 02 74 3e
       0.106202945 -0.15316424 -0.074739106 0.23829097
000090 bf f5 dc bd 86 c9 0c 3e 71 cb a2 bd 8f 11 40 3f
       -0.1078906 0.1374875 -0.079489596 0.7502679
0000a0 bc c6 59 3e 25 ac 35 be df 3c 53 bb 63 a8 51 3e
       0.21267217 -0.17741449 -0.0032232327 0.2047439
0000b0 33 4a 90 bd 3e 78 1e bc 43 22 30 be e6 0d 70 be
       -0.070454024 -0.009672223 -0.1720057 -0.23442802
0000c0 18 41 a9 bd eb 44 42 be 75 97 75 be 85 d5 26 bd
       -0.08264369 -0.18971603 -0.23983558 -0.04073097
0000d0 3c 73 1b 3f 1b bc fc 3d 32 96 8e bd 09 10 9d 3d
       0.6072271 0.12340566 -0.06962241 0.07669074
0000e0 7e 07 1d 3e 51 7f 07 be 73 cd 91 3d 55 ac e9 be
       0.1533489 -0.13232161 0.071192645 -0.4563929
0000f0 59 7a 13 be 2d bd 63 be 94 02 44 bd 2d a2 f4 3d
       -0.1440214 -0.22240134 -0.04785402 0.11944995
000100 d1 95 a2 3d 93 74 c7 be e9 03 ec 3d 9d d1 a1 3e
       0.079387315 -0.38956127 0.11524183 0.31605235
000110 bc 04 2d be 43 e1 50 3e 6e 9a a5 be 82 10 db bd
       -0.16896337 0.2039843 -0.32344383 -0.10696508
000120 76 18 65 3e 6d 57 0b be d6 91 97 bd da 2a 22 be
       0.22372612 -0.13607569 -0.07400863 -0.15836659
000130 a0 ea 6a bd 1b 0e 5e be 19 5b 8c 3d 39 ab 14 be
       -0.057352662 -0.21685068 0.06853313 -0.14518441
000140 cc 1b 8a bd 8b d5 41 bd 0c 46 97 3e d7 f3 66 bd
       -0.06743583 -0.04732279 0.2954563 -0.056384888
000150 84 f2 40 3c af f9 6d 3e 66 93 8a be 69 e1 70 3e
       0.01177657 0.23239778 -0.2706558 0.23523487
000160 3f 6a b6 bd 44 3d b5 bd df df ab be 21 84 71 3e
       -0.089069836 -0.08849576 -0.33569238 0.2358556
000170 79 da d8 3e f2 f3 35 be 98 a5 22 be c4 2d 84 3e
       0.4235418 -0.17768839 -0.15883482 0.25816166
000180 94 6b f0 3d 3c a7 6b 3e 3c 95 a0 3d b0 ab 9a 3d
       0.11739269 0.23013014 0.07840964 0.07552278
000190 af af 20 be 21 f9 f2 bd cc 2c 8c bd 09 d3 cd 3e
       -0.15692018 -0.11863924 -0.06844482 0.4020007
0001a0 f3 dc 3d 3e a3 22 27 3f 58 5b 80 3e 61 7d 87 3e
       0.18541317 0.65287226 0.2506969 0.26462844
0001b0 b8 ad 47 be 37 74 90 bd 16 14 94 3c 95 e1 47 3f
       -0.19499862 -0.07053416 0.018075984 0.78078586
0001c0 47 88 c7 bd 4a 3e f4 bd f4 74 99 bd e3 ca 05 3e
       -0.0974279 -0.11925943 -0.0749301 0.13065676
0001d0 fe ec 1c 3d 56 ff ee 3c 6d f7 09 be 3e 85 ce bd
       0.03831195 0.029174488 -0.13473292 -0.10084008
0001e0 9f 77 b4 bd 03 21 4a 3f 88 b4 79 3e 83 63 bf bd
       -0.088118784 0.7895662 0.24385273 -0.09345152
0001f0 e7 fc 96 3e 63 93 aa bd dc b1 3d 3f 8f 72 d8 3d
       0.29489824 -0.08328893 0.74099517 0.10568725
000200 c1 eb 53 3e 62 09 7c bc 96 26 f8 3d c1 75 6d 3d
       0.20695402 -0.015383096 0.12116735 0.057973627
000210 9a 41 d6 be 09 2f f8 bd be ce ea 3d 01 33 83 be
       -0.41846925 -0.12118346 0.11465214 -0.2562485
000220 dd 02 32 3d ba 3f 4e 3f 7e 88 9d 3e 62 df f8 bd
       0.043459762 0.8056599 0.30768198 -0.12151982
000230 a6 84 05 3e cc 37 1b 3e b2 fc a2 3c 05 df 96 3d
       0.13038883 0.15158004 0.019895885 0.07366756
000240 77 ac 42 3d 7a 14 04 bb 69 ea bd bd 27 be 17 be
       0.047527757 -0.0020153807 -0.09273226 -0.14818631
000250 d0 8e bf bd 7f b0 f5 bd 98 a7 e8 bb 5b 20 fd bc
       -0.09353411 -0.119965546 -0.007100057 -0.030899217
000260 f5 9f eb 3e 7a c3 0a bd 31 c8 aa 3d 86 fe d0 bd
       0.46020475 -0.033877827 0.08338965 -0.102047965
000270 18 a8 b3 bd 96 19 a7 bd ab dc 1f 3f 44 e8 f2 3d
       -0.08772296 -0.08159177 0.6244609 0.118607074
000280 44 77 8b 3e b1 51 cd be b3 d8 c1 bd c0 85 7e 3d
       0.2723943 -0.40101388 -0.0946516 0.062139273
000290 84 93 3c 3d e5 7c 25 3d 16 45 52 3d 20 f9 27 3e
       0.04603912 0.04040231 0.051335417 0.16403627
0002a0 4d 86 f7 bc 9d 4e 49 3e 0b e7 cd bd 38 e1 1b be
       -0.030215407 0.19658895 -0.100538336 -0.15222633
0002b0 ed 60 d2 3c 7a 2f a7 3d 94 cb c4 bd 1b 3a b0 3d
       0.025680983 0.08163352 -0.09609142 0.08604833
0002c0 9c 34 36 3d 38 08 00 be 6a 69 9b 3e 8a ca 55 3d
       0.044483766 -0.12503135 0.30353862 0.05219511
0002d0 b4 a7 af 3e 3b 4f d8 3c 71 34 ca bd 12 be 4e 3e
       0.34307635 0.026404968 -0.09873284 0.20189694
0002e0 6b 88 7d 3e 69 05 a9 bd 32 16 17 be e2 d5 3d be
       0.2475907 -0.08252985 -0.1475456 -0.18538621
0002f0 b2 f4 c6 3e 3a 19 1a 3e ee 35 e2 bd fd 1d c6 bc
       0.38858563 0.15048686 -0.110454425 -0.024184221
000300 06 4d cc 3c 2c a6 44 be cf 48 bd 3c 29 79 df 3d
       0.024939071 -0.19204015 0.023106007 0.10911781
000310 b2 64 08 3f a9 36 b3 bd b3 19 e9 be df 27 ac 3e
       0.5327865 -0.0875066 -0.4552742 0.3362417
000320 ee d9 e0 3d 2f 13 cf be cc 38 03 3f d7 1f cf bd
       0.10979067 -0.40444323 0.5125854 -0.10113495
000330 83 e5 6e 3e c5 dd 91 3c a6 a9 03 3f ad f9 5e bd
       0.2332974 0.017805943 0.5143074 -0.054437328
000340 0f b5 6b 3e da b8 30 3d 54 86 6b 3e 11 ba b2 3d
       0.23018287 0.04314504 0.23000461 0.087268956
000350 12 31 79 3e f9 b5 8a be b8 eb 08 3c e9 d2 be bd
       0.24335125 -0.2709196 0.008356981 -0.09317572
000360 dc 9e 08 3e d7 e5 2e bd a8 53 62 3d 5e 47 81 bd
       0.1334185 -0.04269966 0.055255562 -0.0631244
000370 07 1a 17 3f 0a 9a 9c be dd 62 5a 3e 5e ac 4a 3e
       0.5902409 -0.30586272 0.21326776 0.19792315
000380 91 85 72 be 8e a3 fc 3d de 88 d8 bd af b9 3f be
       -0.23683764 0.12335883 -0.1057298 -0.18723176
000390 13 f4 39 3e fb a4 31 bd fd 63 8b be 42 a9 26 be
       0.18159513 -0.04337023 -0.27224723 -0.16275504
0003a0 72 2e 19 be 9b 78 06 be c9 c6 cf 3d 59 5b c0 3e
       -0.14959124 -0.13131945 0.10145337 0.37569693
0003b0 a6 eb 0f 3e 36 be 70 bd d5 9e ca bc c7 8a 15 3e
       0.14054736 -0.05877515 -0.02473394 0.1460372
0003c0 5e 3e 27 bc 33 fd 15 3b 79 02 b2 3c da 3f 8f be
       -0.010207741 0.0022886514 0.021729695 -0.27978402
0003d0 39 ec a3 bd b2 ec 87 be 5b be 66 be ac db 92 bd
       -0.0800404 -0.26547772 -0.22533552 -0.07170805
0003e0 a6 04 2a 3e 31 6f ef 3d 24 fb 1a 3e 59 8f 96 3e
       0.16603336 0.1169113 0.15134865 0.2940624
0003f0 7d 31 72 3c e7 f7 42 3e cd 9e a4 3d 4c 18 bf 3d
       0.014782307 0.1903988 0.08038101 0.09330806

encoder.4.weight f4 [4, 256]
000000 4a fe cc bd 2c 4b 08 bd 78 19 10 be 63 74 5c 3d
       -0.10009439 -0.033274814 -0.14072216 0.053821933
000010 94 a3 1c bc fd f2 46 bd c5 c1 25 bd ea 4a a8 bd
       -0.009560484 -0.048571575 -0.040467996 -0.08217414
000020 9c 65 86 3d f7 6b 03 be 5d d9 2d 3d b7 b3 6f bc
       0.06562349 -0.12834154 0.042443622 -0.01463025
000030 25 c7 3d 3d 14 9e 19 be aa 61 76 bd 2e 59 1a be
       0.046332497 -0.15001708 -0.060151733 -0.15073082
000040 32 b6 8b bc e9 05 ba 3d eb b6 a1 b9 fb 99 23 3c
       -0.017054651 0.090831585 -0.00030844597 0.009985442
000050 c7 56 09 bc 47 ac 38 bd 51 18 c7 3e e4 64 3a 3d
       -0.008382506 -0.04508617 0.3888574 0.045506373
000060 d3 19 75 be 6a 33 a6 3d ea 7d e5 3d fb aa 18 bb
       -0.23935632 0.08115275 0.11205657 -0.0023295272
000070 b2 43 f2 bd 98 fb 06 bd 6f 52 aa 3b e5 71 83 3e
       -0.11829318 -0.032954782 0.005197815 0.25672832
000080 18 fa c8 3d 6e 13 e7 bc 16 2b 75 3d 7e d8 06 be
       0.098133266 -0.028207507 0.059855543 -0.13168523
000090 37 6d b1 bd de 25 8c 3d b2 e4 00 bd df a8 0e 3f
       -0.08663409 0.0684316 -0.0314681 0.55726427
0000a0 84 48 5e bc ad c1 46 3b 90 0a bc 3b 18 14 64 3b
       -0.013567094 0.0030327842 0.005738564 0.0034802016
0000b0 d3 0a fd 3d d1 96 e0 bb c8 23 5d bd 4e 82 a3 bd
       0.1235558 -0.006853916 -0.0539892 -0.07983838
0000c0 8b c8 cc bc 96 8c 87 bd 68 29 8b 3b 0b f3 fe bb
       -0.02499797 -0.066186115 0.0042468794 -0.007780438
0000d0 98 c1 47 bf 69 d7 96 3e ce 8a 8c 3b 9e 10 b3 3e
       -0.78029776 0.2946122 0.0042890077 0.34973615
0000e0 50 4d 45 3d 13 29 7d 3d 69 28 c2 bb 51 bc c0 3d
       0.048169434 0.06180675 -0.0059252274 0.094109185
0000f0 ba 92 98 3c 92 35 52 bc 00 02 89 39 46 90 98 bc
       0.018624652 -0.012830155 0.00026132166 -0.018623482
000100 75 3c 1c be b3 43 9a bc 14 59 3c 3c f4 45 1a bd
       -0.15257438 -0.01883111 0.011495847 -0.03766437
000110 3d 8d fa 3d 6e de d3 3c c6 a6 dd 3e ec a6 98 3c
       0.1223397 0.025862899 0.432913 0.018634282
000120 8e d5 57 3d f9 b8 fb be 4e 6d 22 bd 07 71 85 3d
       0.052693896 -0.4916456 -0.039655022 0.06515699
000130 3f e5 4b bd b2 0c 0a 3e 48 3a 7c 3d 91 6a 79 3d
       -0.049779173 0.13481405 0.06157902 0.060892645
000140 91 b2 19 bd 91 59 6a 3c 50 81 4d bc bb e3 26 bc
       -0.03752381 0.014303581 -0.0125430375 -0.010186131
000150 c9 fd 16 3c b3 16 8d be 36 d1 87 bd 73 8e 19 3b
       0.0092157805 -0.2755638 -0.06631701 0.0023430854
000160 19 46 37 3d 0c 79 ac 3c e1 4b 9d 3c f8 9d ab bd
       0.044744585 0.021053813 0.019201221 -0.083797395
000170 78 0d 4a 3c 9d 43 42 bd 10 5c 30 3e a6 5a a2 bd
       0.012332313 -0.047427762 0.17222619 -0.07927446
000180 7a 81 8b 3d e6 61 69 bd 08 be 04 be 74 bf 21 3d
       0.06811805 -0.05697813 -0.12963116 0.039489225
000190 bc 6f 9d 3d 82 4f 18 be 93 1b f8 3b 2e 55 25 3e
       0.07687327 -0.1487408 0.0075716465 0.16145775
0001a0 df f8 69 ba 03 d8 b9 be 5a 11 cf bd e7 12 3c bc
       -0.00089253293 -0.36297616 -0.101107314 -0.011479116
0001b0 04 2d bb bb f9 24 f5 3e 38 ee d2 b7 e2 d1 27 be
       -0.0057121534 0.4787977 -2.514488e-05 -0.16388658
0001c0 1d 81 ae 3d 10 cc b2 3d b0 a2 d1 3b 59 2e 98 3d
       0.0852072 0.08730328 0.0063975677 0.07430715
0001d0 fd 10 5d 3d ac 49 4d 3d 8b 09 f7 3d c5 07 84 3a
       0.05397128 0.050119087 0.12062367 0.0010073116
0001e0 11 69 9b 3d 39 0b 4b be e0 97 17 3e 34 f7 f2 b9
       0.07588399 -0.198285 0.1480403 -0.00046342018
0001f0 50 92 6d be f7 b6 72 bc 36 d6 27 3f 62 7c fe ba
       -0.23200345 -0.01481413 0.65561235 -0.0019415731
000200 9e e3 54 bd 21 e8 2c 3d a5 8c 3a bd 2b 09 c6 3d
       -0.051974885 0.042213563 -0.045544285 0.096697174
000210 3b 5a 25 be 3f d3 45 bd 10 c8 2c 3c 40 b7 7b bb
       -0.16147701 -0.048297163 0.0105457455 -0.0038408786
000220 c9 19 3a 3e b2 8d 46 3f a5 79 99 3d 83 77 96 3c
       0.18173899 0.7755996 0.07493905 0.018367535
000230 8b 3b 44 bc 6a 37 b7 3c a1 08 41 3e 08 a2 bf 3d
       -0.011977087 0.02236529 0.18850948 0.09357077
000240 27 54 a0 3c 67 59 0b be a0 70 f0 3b f5 d1 af 3d
       0.019571377 -0.13608323 0.0073376447 0.08584968
000250 b7 83 f4 bc ea e1 b0 3c f5 51 24 bd c7 8e 6f 3e
       -0.029847963 0.0215921 -0.040117223 0.23394309
000260 b0 85 7b bd 72 1f 17 bd a1 63 7c bc e6 01 4d bc
       -0.06140679 -0.036895223 -0.015404613 -0.01251266
000270 bc 0a 9c bc ad 27 82 bd b8 6b 43 bf 01 eb 8b be
       -0.019048087 -0.06355224 -0.7633624 -0.2732773
000280 9d 8e 47 3e 07 b9 1e 3c 7d 09 42 bc 5f a7 92 be
       0.19487996 0.009687669 -0.0118430825 -0.2864332
000290 f9 70 5e bd 6e ea 89 3d cf 93 83 3d e8 a2 61 be
       -0.054306958 0.06734167 0.064246766 -0.220348
0002a0 53 32 f2 3c cc 02 e0 3d 1b 27 9f 3f ba ec 99 3e
       0.029565012 0.109380335 1.2433809 0.3006342
0002b0 2d 4a 46 bd 9c a9 bf bb ee 01 37 bc 0a e4 23 3d
       -0.048410583 -0.0058490764 -0.011169894 0.040012397
0002c0 65 3b 13 3b 33 5d f5 bc b3 8c 3c 3e 90 74 f1 3d
       0.0022465822 -0.029951667 0.18413047 0.11789811
0002d0 e2 8b 15 3e 75 d4 52 3d ab 3d 55 3d 56 ba a7 3d
       0.14604142 0.051472146 0.052060764 0.08189838
0002e0 17 79 ba bd 2a cd 17 3d 49 c1 34 bd da 5c 2b bf
       -0.09105127 0.037060894 -0.044129644 -0.66938555
0002f0 fe cc 64 3e 8c 3e 9b bd a6 33 2f bd 74 dc e4 3c
       0.22343823 -0.07580289 -0.042773865 0.027937151
000300 99 7a ba 3c 17 2c 96 3d dc d5 a6 3d 3c 4d e0 3c
       0.022763537 0.07332628 0.08146259 0.027380578
000310 e2 33 c3 3a c4 a2 9f 3c c5 d1 ec bd 3c 7b 12 3e
       0.0014892782 0.019486792 -0.11563448 0.14304823
000320 40 dd bb 3d 61 3e 02 3e de 95 8f 3e d2 dc 46 3d
       0.091730595 0.12719108 0.28044027 0.048550434
000330 e6 85 dd 3d 5b 6c a6 3b e5 b1 23 3f f7 91 51 3d
       0.10816555 0.005078835 0.6394332 0.051164594
000340 11 1d e6 be 13 7a 25 bc 6b c7 23 3c f7 04 98 3d
       -0.4494405 -0.010099906 0.009996275 0.07422822
000350 16 9f 54 bc 28 1c 1b bd 08 6e 48 3c 13 dc 00 3d
       -0.012977382 -0.03786865 0.012233265 0.03145988
000360 d1 ba 38 3d e2 31 9a 3d 27 a4 db 3b 7d e8 d6 3c
       0.045100037 0.07529046 0.006702918 0.026233906
000370 48 25 03 be c9 d7 91 3d 92 32 55 bd 66 ea 89 bd
       -0.1280719 0.07121236 -0.05205018 -0.06734161
000380 ef 0f ed bb 74 f1 3f 3d 40 4c a0 3d e5 32 5d bd
       -0.0072345654 0.046861127 0.078270435 -0.054003615
000390 05 b9 bb bc ad 8e 9c 3c 71 ae 12 be 34 26 79 3e
       -0.022915373 0.019111002 -0.14324357 0.2433098
0003a0 bd 23 cf 3b 48 10 6d 3d 92 62 e9 3e 5e 03 8b bd
       0.006321399 0.057876855 0.45583016 -0.067877516
0003b0 7d 24 a5 3e 7a d0 a6 3d 6d 62 f9 bc b2 7d 10 bd
       0.322544 0.081452325 -0.03044244 -0.035276122
0003c0 ef 3a 1f 3d e1 57 4c bd b7 41 1c bb 12 3c 6d be
       0.038874563 -0.049888495 -0.002384288 -0.23167446
0003d0 a4 45 00 bd 1a a3 54 be 4a 64 a8 3d f6 11 af 3c
       -0.031316414 -0.20765343 0.082222536 0.02137087
0003e0 42 90 5e bc 4a 92 25 bd ce b2 64 bc 6a 55 ed 3c
       -0.013584198 -0.040422715 -0.013958646 0.028971393
0003f0 31 13 cd 3c 24 4a 16 bc de 6f 96 bc c6 d5 fb bc
       0.025033565 -0.00917295 -0.01836389 -0.030741584

encoder.4.bias f4 [4]
000000 ed 77 ac bd 8b 67 2e 3f 98 df 98 3e 2d ca d5 be
       -0.084213115 0.68126744 0.29858088 -0.4175581

decoder.0.weight f4 [256, 4]
000000 cf 01 62 be 12 78 45 be 47 88 8f 3e 56 23 83 3e
       -0.22071002 -0.19284084 0.2803366 0.25612897
000010 bd 83 d6 3c 89 be f0 bd 3c 43 8c be 3a 3d cb 3e
       0.026185865 -0.11755092 -0.27395046 0.3969515
000020 79 59 7f 3e b8 32 80 3e 0a 85 0e be d2 50 9a 3d
       0.24936475 0.25038695 -0.13917938 0.075349465
000030 8b e2 f0 bd 77 b7 1d 3e 1a 5a 99 3e e3 a7 be bd
       -0.1176196 0.15402018 0.29951555 -0.093093656
000040 4d 4e e9 3c 73 89 31 3d 6c 0a f8 bd 6a d6 16 be
       0.02847972 0.043343972 -0.12111363 -0.1473023
000050 fb d8 98 bd f5 1f 7b be 4e c8 01 3f d4 96 a6 be
       -0.07463261 -0.2452391 0.50696266 -0.32536948
000060 ca 88 5a 3d ce e3 b6 3c fe 5c e3 3d 86 10 de 3c
       0.05335311 0.022325423 0.11101721 0.027107488
000070 46 52 39 be d7 2d 5a 3e e2 b5 80 3e a9 87 1b 3b
       -0.18097791 0.21306549 0.25138766 0.0023731983
000080 2a be f0 be ae 23 8f 3e 00 d1 4a 3f b8 a2 32 be
       -0.47020084 0.2795691 0.7922516 -0.17444885
000090 cc 81 fc 3c 0b 3c 9c 3d e5 0b 1e 3f c0 72 5f bc
       0.03082361 0.0762864 0.617369 -0.013638198
0000a0 9e 43 8a 3d da 61 37 3c cf 1f ea 3c a1 51 dc 3c
       0.06751178 0.011192763 0.02857962 0.026894392
0000b0 e0 7a 33 3c 5f 45 d4 3d 8a 6d 3a 3e d1 ef b6 bb
       0.010954589 0.10364794 0.18205848 -0.0055827876
0000c0 81 cd 48 3e 63 73 78 be 0b 56 31 3e 56 e9 ce 3e
       0.19609644 -0.24262767 0.17317979 0.40412396
0000d0 62 eb 32 3e 52 b3 88 3d 8c 42 80 3e ac 25 3e 3d
       0.17472604 0.06674828 0.2505077 0.046422645
0000e0 83 5f 79 be 42 e7 8e bd 9f 71 85 be 1a 2d b7 be
       -0.24352841 -0.06977703 -0.2606325 -0.35776597
0000f0 e1 49 85 3d 61 85 c4 bd 28 00 33 3c bc 2d 63 3d
       0.06508232 -0.095957525 0.01092533 0.055463538
000100 c3 07 6f be 01 95 06 3e ac 3f 4b 3e 1e b2 66 3d
       -0.23342805 0.13142778 0.19848508 0.05632221
000110 2e 97 42 be e6 56 87 3e b7 a1 5d be 12 8b 19 3e
       -0.19002983 0.26433486 -0.2164372 0.14994457
000120 31 39 c0 3e 70 e6 3c bd bf ae 60 bd 38 a9 3c be
       0.37543634 -0.0461182 -0.05485415 -0.18423927
000130 ec 51 9b bd b0 75 60 be c9 14 db bc c7 8f fb 3d
       -0.07583985 -0.21919894 -0.02674331 0.12283283
000140 58 96 9e 3e e8 42 30 bf 05 da de 3d 0d 4d 2c 3d
       0.30974078 -0.6885209 0.10881428 0.04206567
000150 04 a0 43 3e 12 28 91 be 6c 23 ef bd c6 b8 07 be
       0.1910401 -0.28350884 -0.11676678 -0.13254079
000160 8d d1 a2 3e 50 f6 1a 3f 93 0e bb 3e aa 75 1d 3f
       0.318005 0.60532093 0.36534557 0.61507666
000170 eb 32 08 be 78 d3 0a 3e e6 56 9d 3d 74 b4 44 3c
       -0.13300674 0.13557231 0.0768259 0.012005914
000180 94 46 2d be 77 87 fd 3d e7 1e 04 3e cb df ac 3c
       -0.16921455 0.123793535 0.12902413 0.021102807
000190 3f 48 03 bf 10 c4 3d 3e 07 20 86 bd 5c e0 c7 3d
       -0.51282114 0.18531823 -0.065490775 0.0975959
0001a0 d4 6b 1a be a3 1b 10 bc ce d7 eb bd 59 12 4f bc
       -0.15080196 -0.008795652 -0.11515771 -0.012638652
0001b0 30 77 7e bf ca 2b 6d 3e 02 39 6d 3f 4a 95 62 3e
       -0.99400616 0.23161235 0.9266511 0.22127262
0001c0 d9 cd 98 3d 60 bb a9 3b a6 b2 91 3d 3e 0d 5b 3c
       0.07461137 0.0051798075 0.071141526 0.013369856
0001d0 ad cc 2c 3e 7b ed cb 3b 0b d5 0a be 95 66 23 3e
       0.16874953 0.0062233782 -0.13557832 0.159571
0001e0 ca a7 7f 3e 4b ee 8f be 19 28 25 3e 68 19 7e be
       0.2496635 -0.2811149 0.16128577 -0.24814379
0001f0 52 1d 89 3e c9 0b 8a 3b 68 48 cc 3e 8e ee d7 3d
       0.26780182 0.0042128307 0.39898992 0.105435476
000200 f0 c7 cc be 09 43 b9 3e 9e 92 6b bb a6 59 32 3e
       -0.3999629 0.36183956 -0.0035945545 0.1741701
000210 c0 d0 81 be 5d 8e 28 be 85 45 0b bd f9 6e d5 bd
       -0.25354576 -0.16460557 -0.034001846 -0.10421557
000220 77 6c 70 3e c4 d8 86 3e da fd d9 3e c5 61 63 3d
       0.23478876 0.26337254 0.42576486 0.055513162
000230 d5 f9 46 be c7 38 fb 3d 76 e0 6f 3c f5 9f d0 3c
       -0.19431241 0.12266689 0.014640918 0.025466898
000240 93 e5 42 be 90 d3 9b be fe 83 fb bd 17 b0 6c 3e
       -0.19032888 -0.30434847 -0.12281035 0.23114048
000250 54 c5 10 be bc c7 31 3e 60 86 db 3b dd 8f a3 ba
       -0.14137775 0.17361349 0.0066993684 -0.0012478788
000260 ce f9 75 be a3 e3 f4 bd 08 47 5a be 11 a0 ba 3d
       -0.24021074 -0.11957481 -0.21316159 0.091125615
000270 e8 f8 ba be 45 4b 8c 3e ed d8 9c 3e 10 f6 c8 3d
       -0.36518025 0.27401176 0.3063425 0.09812558
000280 a5 6e bb bd 0b 9f 3a bc dc 7d ce 3d 71 58 75 3d
       -0.09151963 -0.011390458 0.100825995 0.059898797
000290 35 df 5b 3e 6f 1d 7c 3e 70 b9 ce 3e 5c 0c 24 bc
       0.21471865 0.24620603 0.40375853 -0.010012712
0002a0 cf da 19 bf a6 62 44 3e d5 48 2c bd 17 5c 65 be
       -0.600995 0.19178256 -0.042061646 -0.2239841
0002b0 64 a6 03 3f 09 46 2c be 37 c0 ad 3e dc 57 85 3e
       0.51425767 -0.16823591 0.3393571 0.26043594
0002c0 77 d9 05 be ea 84 22 bd c6 81 1b be 0c 44 42 be
       -0.13071238 -0.039677538 -0.15186223 -0.1897127
0002d0 d3 4a 08 3d 48 0b 51 be ec 91 09 3e 91 55 77 3d
       0.033274483 -0.2041446 0.13434571 0.060384337
0002e0 76 1e 47 be 10 1f 18 3e 9e 73 90 be 67 e2 95 be
       -0.19445214 0.148556 -0.2821321 -0.29274294
0002f0 b7 fd a3 be 4a 4f e2 be 82 2d 1c 3f df c8 8b 3e
       -0.32029507 -0.44201118 0.6100694 0.2730169
000300 b0 88 b9 3e 39 4e 2e 3e 40 9b 33 3e a7 14 2b 3e
       0.36237097 0.17022027 0.17539692 0.16707097
000310 70 65 1c 3e b3 74 0e 3d 3a 5b f8 bd 08 aa 22 3e
       0.1527307 0.03477926 -0.12126775 0.15885174
000320 de 49 e7 bd 55 37 b4 3e c6 ff 11 be 63 1f 7e be
       -0.11293386 0.35198465 -0.14257726 -0.2481666
000330 19 a3 59 be b0 49 60 3e b4 6a 1f 3e 34 f6 13 be
       -0.21253623 0.2190311 0.15568048 -0.14449388
000340 ac ba 53 bd 59 46 1f 3d 17 cd c0 3e d2 15 57 be
       -0.051691696 0.038885448 0.3765647 -0.21004418
000350 60 0a a4 bf f0 33 31 3f 1a 8f b3 3e 7e c1 8e 3e
       -1.2815666 0.69219875 0.35070115 0.27881998
000360 75 32 84 be c9 ff c3 3d 91 4e e8 bd eb 56 ea bd
       -0.25819746 0.095702715 -0.1134311 -0.114423595
000370 3e 49 e4 bd 3f 3c 2e 3e 49 74 e5 3e c8 cd b7 bc
       -0.11146782 0.1701517 0.4481528 -0.022436991
000380 c9 bc 67 be c5 01 a4 3e e9 37 0c 3d fe 87 07 3d
       -0.2263061 0.320326 0.034233008 0.033088677
000390 6a fb e7 be 38 e2 2b be a1 f5 21 3f d2 a9 1d 3e
       -0.45309 -0.16785514 0.63265425 0.15396813
0003a0 17 19 aa 3e 4f ed 84 be fd 18 8b 3c 85 1c ea bd
       0.33222267 -0.25962302 0.016979689 -0.11431221
0003b0 7a 91 c8 bd 44 74 55 3e c4 0e f3 3d ad cd 91 3d
       -0.097933725 0.20845133 0.11868051 0.07119308
0003c0 36 45 90 3e b1 76 a2 be 02 6f 8f 3d 5c 6d 03 3d
       0.28177804 -0.3173118 0.07003595 0.032086715
0003d0 72 17 a3 3e c1 63 ea 3c 08 c9 c5 bc 6a f6 bd 3e
       0.31853825 0.02861202 -0.02414371 0.37102062
0003e0 78 6a c0 bb 36 e5 e8 bd 46 55 e2 bc a3 54 4e 3e
       -0.005872067 -0.113718435 -0.027628552 0.20149474
0003f0 9a 14 a8 bc d5 68 50 bd c0 cb 56 3d 8a 89 72 bd
       -0.020517636 -0.050881226 0.052440405 -0.0592132

decoder.0.bias f4 [256]
000000 1d c0 5b 3e 90 dc b3 bf fe 0b 64 3e f0 3e 28 bf
       0.21460004 -1.4051685 0.222702 -0.65721035
000010 3e e9 47 be a1 30 6a bf 8c 47 10 3d ff b3 4c 3e
       -0.19522569 -0.9148045 0.035224482 0.19990538
000020 59 dc ab bf 24 99 59 bd 63 f7 af b8 27 c8 44 3d
       -1.342662 -0.053124562 -8.3907296e-05 0.048042443
000030 f7 b7 a6 be ab 03 4c 3d aa 16 cf be 6e ca 4e bf
       -0.3256223 0.049808186 -0.4044698 -0.80777633
000040 6d fa 78 bf c9 99 59 bf 9c 17 ec be 81 5e 4e bf
       -0.9725712 -0.8500028 -0.46111763 -0.8061295
000050 b3 40 2d bf 3b b6 8c bd 3d 7d 8f be f7 7f 2e be
       -0.6767685 -0.06870695 -0.28025237 -0.17041002
000060 f1 47 26 3e dc ef e6 be 59 88 96 bd 6c 85 f3 be
       0.16238381 -0.45104873 -0.07350225 -0.4756273
000070 a9 23 89 3d cd ec 61 bf b3 c9 3c bf e9 5e fb 3e
       0.06696255 -0.88251954 -0.7374527 0.49095848
000080 5e 28 6f bf 2d a6 8b bc 70 c9 8b bd dd 87 ec bd
       -0.9342097 -0.017047012 -0.068255305 -0.11549351
000090 6d 9f 0a 3e 23 7c d9 bd 5c ed 34 3d 2d 82 c6 be
       0.13537379 -0.1061938 0.044171676 -0.3877119
0000a0 df 65 d9 bd 91 6c c5 bd d3 29 0d bf 21 99 45 bf
       -0.106151335 -0.09639848 -0.55141944 -0.7718678
0000b0 6b 57 0d 3e 8c 12 13 bf 3e 29 4b bf 36 a1 b8 3e
       0.13802879 -0.57450175 -0.79359806 0.36060494
0000c0 e9 8c 95 be 83 73 95 be 91 06 24 bf b0 9d 0a 3e
       -0.29209068 -0.2918969 -0.6407252 0.13536716
0000d0 7d 3d 09 3e 83 e3 78 bf e7 f5 39 3e 47 f9 43 bd
       0.13402362 -0.97222155 0.1816021 -0.04784515
0000e0 ed df 3a bf c7 d1 97 bf d7 c2 9a 3d bf be 94 bd
       -0.72997934 -1.1860894 0.07556694 -0.072629444
0000f0 b0 4e 27 3e e5 ed 0d 3d 21 7f 2f bf fd d2 54 be
       0.1633861 0.034650702 -0.6855336 -0.2078361
000100 ca 80 b8 3e 92 ff d4 be a2 ea 65 be 57 f1 05 bf
       0.36035758 -0.41601235 -0.22452787 -0.5232138
000110 15 8a e1 be c3 28 d5 be ae fb a8 be e1 53 a2 3e
       -0.4405066 -0.4163266 -0.33004516 0.3170462
000120 fe e7 2a bf ca 4a 0b bf 8c 3f 16 bf d8 0b 22 bf
       -0.6676024 -0.54410994 -0.58690715 -0.6329932
000130 a2 d2 29 bf 80 e2 45 bd 43 75 3e bf 33 09 26 bf
       -0.66337025 -0.04831171 -0.7439768 -0.64857787
000140 eb b7 10 bf 7a e9 89 be 3b 1e 19 3f 47 de dd 3e
       -0.56530637 -0.2693594 0.59811753 0.43333647
000150 8a 86 a8 3d 68 55 d4 be e5 ed f7 be 17 bd 1d 3e
       0.08228786 -0.4147141 -0.48423687 0.15404163
000160 bf ec 08 bf 40 ff 08 3e b9 2a 66 be 20 4e 58 bf
       -0.53486246 0.1337862 -0.22477235 -0.8449421
000170 1e 57 d3 3e eb de 78 3e 29 ac 1c 3e 07 e3 62 bd
       0.41277403 0.24303786 0.15300049 -0.05539229
000180 6c 43 12 3d 4b a5 e5 be 30 90 87 be 0b 31 0a be
       0.03570883 -0.4485267 -0.26477194 -0.13495271
000190 70 7d 97 3e 82 10 5b be 0e b8 3d be 6c 53 e2 bd
       0.2958789 -0.21393016 -0.18527243 -0.11051068
0001a0 bc 11 db 3c 7b 4d 66 bf 5e ea 8e bf 54 cc b1 be
       0.026741855 -0.89961976 -1.1165273 -0.34726202
0001b0 ed 2d f0 3c 79 55 da be 61 dc dc be 5f 84 18 3e
       0.029318774 -0.42643335 -0.43136886 0.14894246
0001c0 6d af f7 be 71 d5 4e bc a1 e2 9e be f9 f4 34 bf
       -0.48376027 -0.012624131 -0.3103228 -0.706863
0001d0 6d cd a1 3d ef 4c 55 be 7c a5 1b bf e2 0b 57 be
       0.0790051 -0.20830129 -0.60799384 -0.21000627
0001e0 0f a2 db be 62 ae ca 3e 9e f8 2d bf 10 9d 5e bf
       -0.42897078 0.3958617 -0.67957485 -0.8695841
0001f0 81 a4 52 bc 2d 61 ea bd 69 a8 1f bf 26 0f 22 bf
       -0.012856604 -0.11444316 -0.6236635 -0.63304365
000200 33 ab 69 bf f7 f1 01 3f 69 bc 10 be b8 11 4f bf
       -0.91276854 0.50759834 -0.14134373 -0.8088641
000210 6a e5 c5 3b 7a f8 e9 be 6c 79 a1 bf 68 dd 88 be
       0.006039311 -0.45697385 -1.261518 -0.2673142
000220 19 bd 9f be 7a f3 f0 be 55 8a 58 be f2 cd 40 bf
       -0.31198958 -0.47060758 -0.2114652 -0.7531425
000230 bb 62 0d bd 81 43 82 3e 7d 85 c3 3d e3 2f 39 bf
       -0.034517985 0.25442126 0.09546945 -0.72338694
000240 85 4b 06 bf 8a 4d 83 bf 23 7a 87 3e 60 7f 14 bf
       -0.52458984 -1.0258038 0.2646037 -0.5800686
000250 8f 53 d8 be 14 51 4b bf 5f 4e 89 bd b9 4d 10 bf
       -0.4225125 -0.7942059 -0.06704401 -0.56368595
000260 bc ba c2 bd 83 3b fb bd dd 9f 44 bf 71 38 85 bf
       -0.09508273 -0.1226721 -0.7680643 -1.040785
000270 9c 68 28 bf ba 12 2a bf 2b 8b 0b bf 6c cc 8c 3c
       -0.6578462 -0.66434824 -0.5450923 0.01718732
000280 cd 59 25 3e 33 e1 ec bc a9 57 dc be b0 7c 99 3e
       0.16147538 -0.028915977 -0.4303563 0.29977942
000290 ae e0 f2 be 5a 68 8a 3e f5 32 53 3e 35 c1 cd be
       -0.47437042 0.2703274 0.20624907 -0.40186468
0002a0 cb 7c 15 bf 4e be 68 be d4 a3 14 bf ca b7 74 3e
       -0.58393544 -0.22728845 -0.5806248 0.23898235
0002b0 d0 0f 36 bf 14 b8 8c be 88 1b f1 bd dc b1 b5 be
       -0.7111788 -0.2748419 -0.11772829 -0.35487258
0002c0 37 22 33 bf 44 ea 7b be cf 49 2a bf 61 b7 db be
       -0.6997408 -0.24601084 -0.6651887 -0.42913345
0002d0 40 83 21 be bc 7a f9 be 51 fa 57 be d7 0e 82 bf
       -0.15772724 -0.4872645 -0.21091582 -1.0160779
0002e0 2d f3 b0 be 65 4e cb 3d 1d 05 3a bf 4f e0 fb bd
       -0.34560528 0.09927062 -0.7266405 -0.12298643
0002f0 d9 c6 4a bf 4e a0 5d bf b5 2c d3 3e b3 7d bc be
       -0.7920967 -0.8657273 0.41245046 -0.3681465
000300 c8 64 c7 be 8e 01 d8 3d da f1 1d bf a5 11 d4 3b
       -0.38944077 0.105471715 -0.6169716 0.00647183
000310 38 29 fe 3d d9 ec e8 be a4 ef 90 be bc 58 d6 be
       0.124102056 -0.454932 -0.2830783 -0.41864574
000320 f1 e6 ec be 0c eb 62 bf e4 62 15 bf 7f 31 e0 be
       -0.46269944 -0.88639903 -0.5835402 -0.43787763
000330 00 d0 de 3e af da 63 bf 45 74 7c bf cc b8 8f bf
       0.43518066 -0.8900556 -0.98614913 -1.122827
000340 2a 1f 88 be 5a dd 42 be 59 36 ee bd 3d f1 4b 3e
       -0.26586276 -0.19029751 -0.1163146 0.19916244
000350 65 35 de 3e 8c 4d 13 bf 64 49 38 3e d8 3d 14 3f
       0.43400112 -0.575402 0.17996746 0.57906866
000360 22 14 e6 3d 93 b2 9f bf 4a 4b 82 bf 38 09 d9 bd
       0.11234309 -1.2476372 -1.0179226 -0.105974615
000370 a1 53 25 bf c1 7f 17 bf a4 a6 60 bf 1f 6c b0 bc
       -0.6458073 -0.5917931 -0.87754273 -0.021535931
000380 44 0e b7 3d cb 27 8d bd ea 57 cf 3d 15 09 82 bf
       0.08938268 -0.068923555 0.1012419 -1.0159022
000390 e5 64 4c bf c9 2e 35 bf 21 60 48 bf 28 12 0c bf
       -0.7984145 -0.70774513 -0.7827168 -0.54715204
0003a0 57 91 14 bf 29 f8 c6 be c1 14 d8 be 78 8d 15 3d
       -0.5803427 -0.38861206 -0.42203334 0.03651187
0003b0 92 e2 6c bf e1 83 90 bf af d6 42 be 16 e6 fc be
       -0.9253322 -1.1290246 -0.19027208 -0.49394292
0003c0 f9 dd 7b bd 61 e9 0e bf 16 45 2f 3e 16 b3 00 bf
       -0.061490986 -0.5582486 0.17116198 -0.50273263
0003d0 83 a0 07 bf f4 24 59 3e 76 57 76 bd 25 6a 9c 3e
       -0.52979296 0.21205503 -0.060142003 0.30549732
0003e0 c4 f5 8d be 86 11 b0 bc b6 e6 9d be ef 3e 8a bd
       -0.27726567 -0.02149273 -0.3084008 -0.06750285
0003f0 3b f2 08 bd 00 5d e1 3c 2b 0d 75 bf 95 78 43 3e
       -0.033434134 0.027510166 -0.9572322 0.19088967
