model/triplet_autoencoder_9700.pth (torch, 401666 bytes, 12 tensors)

encoder.0.weight f4 [128, 120]
0	0xbce67d41	-0.028135898
1	0xbdcbd9ab	-0.09953626
2	0xbd11a61e	-0.035558812
3	0x3c4edee5	0.012626384
4	0xbe2a920d	-0.16657276
5	0x3d3f5b51	0.046717945
6	0xbc4659c1	-0.01210636
7	0xbdcd02e8	-0.1001032
8	0xbe1a7ac1	-0.1508589
9	0xbcc9428f	-0.02456787
10	0xbd0104ce	-0.031498723
11	0xbe1dd05f	-0.15411519
12	0xbdc69f66	-0.096983716
13	0xbde585b6	-0.11207144
14	0x3e42e9a4	0.1903444
15	0x3c99deec	0.018783055
16	0xbc79ff6c	-0.015258651
17	0x3dc71661	0.09721065
18	0xbde25468	-0.110512555
19	0x3d93040e	0.07178508
20	0xbc890964	-0.01672811
21	0xbce9e518	-0.028551623
22	0x3d23f71f	0.040030595
23	0x3e18e09f	0.14929436
24	0xbdda1a5b	-0.10649558
25	0xbd301a4f	-0.04299384
26	0x3e52cfe2	0.20587113
27	0xbdf76aae	-0.120808944
28	0xbe154b7a	-0.14579573
29	0xbdfbdbd8	-0.12297791
30	0xbd823421	-0.06357599
31	0x3e6145c8	0.21999276
32	0xbe0f6d64	-0.14006573
33	0x3db6ce87	0.08926111
34	0x3ebfdc1a	0.37472612
35	0x3e4ffb62	0.20310739
36	0x3cd05007	0.025428785
37	0xbbdd7a26	-0.006758946
38	0x3e514b78	0.20438945
39	0x3c9ff3cc	0.019525431
40	0xbe4e0253	-0.20118074
41	0xbcf95589	-0.030436294
42	0x3d66bfc5	0.05633523
43	0xbd8457c7	-0.06462055
44	0xbd72d2da	-0.059283115
45	0xbe09c922	-0.13455632
46	0xbb94c279	-0.0045397845
47	0x3d7f5187	0.06233361
48	0xbcf0c3bf	-0.029390214
49	0xbe1905fa	-0.14943686
50	0x3d3af8f7	0.045647588
51	0xbdb144be	-0.0865569
52	0xbcf15e80	-0.029464006
53	0xbbf6a9f3	-0.0075275837
54	0xbde236cd	-0.11045609
55	0xbd3d1154	-0.046159104
56	0xbdef1fef	-0.11676013
57	0xbe22810a	-0.15869537
58	0x3d1dbf9c	0.03851281
59	0x3dc0dfd6	0.09417693
60	0x3e0dcb9d	0.13847204
61	0xbe3a1394	-0.18171531
62	0xbc9e1b30	-0.019300073
63	0xbdb8fa45	-0.0903211
64	0xbe0e3715	-0.138882
65	0xbe5ad718	-0.21371114
66	0xbdfb4099	-0.122681804
67	0x3e2cabbd	0.16862388
68	0xbd0b25b4	-0.033971503
69	0xbd520247	-0.051271703
70	0xbd7e3b2a	-0.062068142
71	0x3eb95892	0.36200386
72	0xbe1462f7	-0.14490877
73	0x3bf3381d	0.0074224607
74	0x3d41a0f9	0.047272656
75	0xbe29a702	-0.16567615
76	0x3e90bd68	0.28269506
77	0xbedc6ec3	-0.43053254
78	0xbd22c045	-0.039734144
79	0x3e6569ba	0.22403613
80	0x3ef84bdd	0.4849538
81	0xbd090753	-0.03345425
82	0xbe35e3b7	-0.17762648
83	0x3cc46861	0.023975553
84	0xbdc7e5a1	-0.09760595
85	0xbca14acb	-0.019688984
86	0xbe217b36	-0.15769657
87	0x3e762a4a	0.2403957
88	0x3f196334	0.59916997
89	0xbdcc96d6	-0.09989707
90	0x3e1e6fce	0.15472338
91	0x3edc6c53	0.43051395
92	0x3efb9682	0.49138266
93	0xbdaf5edd	-0.085630156
94	0xbed9b6bb	-0.42522225
95	0x3cc00eaa	0.023444492
96	0x3d1a00f0	0.03759855
97	0x3c8266fd	0.01591825
98	0x3d221fdf	0.039581176
99	0xbd273310	-0.04082018
100	0x3e32027c	0.1738376
101	0xbc8382ed	-0.016053641
102	0xbe18933f	-0.1489992
103	0xbd1f28a7	-0.03885713
104	0x3ef89fcc	0.48559415
105	0x3d4a09af	0.04932564
106	0xbe2742d5	-0.16334088
107	0xbddaa310	-0.10675633
108	0xbd852349	-0.06500871
109	0xbd11ded0	-0.03561288
110	0x3b59983e	0.0033202316
111	0xbdeeed29	-0.116663285
112	0x3eb9ac91	0.3626447
113	0xbeadab45	-0.3391973
114	0xbe6b26b4	-0.22963983
115	0x3f0284a0	0.5098362
116	0x3eb6a65f	0.35673806
117	0x3da1430f	0.078741185
118	0xbe907134	-0.28211367
119	0xbe02677b	-0.12734787
120	0xbd2b81c6	-0.04187181
121	0x3eb10dd1	0.34580854
122	0xbd88baaa	-0.06676228
123	0xbd820f36	-0.063505575
124	0x3e8535ab	0.26017508
125	0x3de04c7f	0.109520905
126	0xbe32de95	-0.17467721
127	0x3e168c08	0.14701855
128	0x3de6a095	0.11261097
129	0xbded2ab9	-0.11580414
130	0x3bdd0bbc	0.0067457836
131	0x3cc4de24	0.024031706
132	0xbdde48a8	-0.10853702
133	0xbce5025a	-0.027955223
134	0x3d4dbd81	0.050229553
135	0xbdae5f26	-0.08514242
136	0x3e04f5dc	0.12984413
137	0x3ce4f86b	0.027950486
138	0xbd97ff2a	-0.074217156
139	0x3de802b9	0.11328644
140	0x3d182688	0.03714612
141	0xbcd9bca0	-0.026579201
142	0xbe05ce0c	-0.13066882
143	0x3dbbbfc3	0.09167435
144	0xbd92302d	-0.07138095
145	0x3d63ab73	0.05558343
146	0xbba1a742	-0.0049332688
147	0xbcad2f2f	-0.021140663
148	0x3d8e5cad	0.0695127
149	0x3dea963e	0.11454438
150	0x3c241da9	0.010016837
151	0xbda7eb80	-0.08199215
152	0xbc253050	-0.010082319
153	0x3de689af	0.1125673
154	0xbde67ec5	-0.11254648
155	0xbe2b8af5	-0.16752227
156	0x3d711360	0.058856368
157	0x3d47330d	0.04863267
158	0x3dd55e1a	0.10418339
159	0x3cadaaed	0.021199668
160	0x3dbf1a4d	0.09331188
161	0xbd50ba8b	-0.05095915
162	0xbd1b3bda	-0.037898876
163	0x3e331d2e	0.174916
164	0xbd88a81d	-0.0667269
165	0xbd37e998	-0.044900507
166	0x3d8ce68e	0.06879912
167	0x3bf4ed97	0.007474612
168	0x3cf41d1c	0.029799037
169	0xbe26716f	-0.16254209
170	0xbd5de83e	-0.05417656
171	0x3daf1370	0.08548629
172	0x3e25b414	0.16181976
173	0xbddcd8d2	-0.10783543
174	0xbc97064a	-0.018435616
175	0x3ea4aa3a	0.32161123
176	0xbe780f17	-0.24224506
177	0x3cd3cc73	0.025854325
178	0x3eaf4d45	0.3423864
179	0xbe61c84d	-0.22049065
180	0x3c9f85a3	0.019472903
181	0x3d9fb5d1	0.077983506
182	0x3d22a309	0.039706264
183	0xbe23bfa3	-0.15991072
184	0x3d991981	0.074755676
185	0x3e2c7d08	0.1684457
186	0xbe0eab83	-0.13932614
187	0xbe17a616	-0.1480945
188	0x3cb48587	0.022036327
189	0x3d1e62af	0.03866833
190	0xbe1bc7ef	-0.15212987
191	0xbe479bc0	-0.19493008
192	0xbd47304c	-0.048630044
193	0x3d73fb96	0.059566103
194	0x3dba3355	0.09091822
195	0x3ea88c1d	0.32919398
196	0xbe30b31d	-0.17255826
197	0x3e0d5060	0.13800192
198	0x3e673012	0.22576931
199	0xbf40aa27	-0.7525963
200	0xbd98e201	-0.07464982
201	0xbe201384	-0.15632445
202	0x3e4b75b7	0.19869123
203	0x3c59109b	0.013248588
204	0xbd37bc12	-0.044857092
205	0xbcbb1a87	-0.022839798
206	0x3d833814	0.064071804
207	0xbdf215e7	-0.11820584
208	0xbe91ac16	-0.28451604
209	0xbd5ac0a2	-0.053406365
210	0x3ec1af34	0.37828982
211	0xbf1f67e9	-0.6226793
212	0xbe9381fa	-0.28810102
213	0xbc8de2cd	-0.017320061
214	0x3df752a0	0.12076306
215	0x3e84571b	0.25847706
216	0xbd1530b6	-0.036423407
217	0xbd77d421	-0.060505036
218	0xbe0e7d92	-0.13915089
219	0xbe507a9f	-0.20359276
220	0x3cf78e29	0.030219154
221	0xbd72b3e8	-0.059253603
222	0x3e5ea999	0.21744384
223	0x3da598c5	0.08085779
224	0x3d6f7cb3	0.05846853
225	0x3d395ead	0.045256305
226	0xbe72fde9	-0.23729672
227	0x3d7d99f1	0.061914388
228	0xbce69db4	-0.02815137
229	0xb94c9687	-0.00019511032
230	0xbe1139ec	-0.14182252
231	0xbdbb100a	-0.091339186
232	0x3f2a8d10	0.66621494
233	0xbe8a09be	-0.26960558
234	0x3ed1e1ca	0.40992576
235	0x3f14a45a	0.5806328
236	0x3c5f440a	0.013627062
237	0xbde54ef3	-0.11196699
238	0xbed71d88	-0.42014718
239	0x3e8caaa7	0.27473947
240	0xbdcdf349	-0.100561686
241	0x3e021940	0.12704945
242	0xbd0c1465	-0.034199137
243	0xbd48c250	-0.049013436
244	0xbd7b3c3b	-0.061336737
245	0x3d9cd4ad	0.07657752
246	0xbd967af3	-0.073476695
247	0xbe27b1fe	-0.16376492
248	0xbd868365	-0.0656803
249	0x3d7c32cb	0.061571877
250	0x3cac0267	0.02099724
251	0x3dc4a2e8	0.096013844
252	0xbda23225	-0.079197206
253	0xbdde4a8e	-0.10854064
254	0x3d7631cc	0.060106084
255	0xbd0c1132	-0.034196086

encoder.0.bias f4 [128]
0	0x3dc431fe	0.09579848
1	0x3c65b771	0.014020787
2	0xbd9f7712	-0.07786383
3	0x3e295d31	0.16539456
4	0xbda3234d	-0.079657175
5	0x3c45bb82	0.012068631
6	0xbda208af	-0.079118125
7	0xbd94070a	-0.07227905
8	0xbd96d4be	-0.07364796
9	0xbb13e0d6	-0.0022564433
10	0xbcbce165	-0.023056695
11	0x3c9f9d68	0.019484237
12	0xbc630f90	-0.013858691
13	0xbd964351	-0.07337058
14	0xbddc39e8	-0.10753232
15	0xbced07f1	-0.02893445
16	0xbda46f21	-0.08029009
17	0xbded0bec	-0.115745395
18	0xbc84505d	-0.016151601
19	0xbcc47432	-0.023981187
20	0xbd2ba927	-0.041909363
21	0x39c2472e	0.00037055596
22	0xbd955cac	-0.072930664
23	0x3abbaf86	0.0014319278
24	0xbd31af6f	-0.043380197
25	0xbdbbf233	-0.09177055
26	0xbd9abb58	-0.07555264
27	0x3da447be	0.08021496
28	0xbda4bd1c	-0.08043882
29	0xbd2434d7	-0.040089455
30	0xbd8a9ed1	-0.06768573
31	0x3bcb09de	0.0061962446
32	0xbc99126d	-0.018685544
33	0xbda07ef0	-0.078367114
34	0xbc97bad7	-0.01852171
35	0xbd6f39db	-0.058404785
36	0xbdb4e11c	-0.08831999
37	0xbdae8a1e	-0.085224375
38	0xbdbbcde1	-0.09170128
39	0xbdc9da67	-0.0985611
40	0xbde976ff	-0.1139965
41	0x3d6ab827	0.057304528
42	0xbdc0ff55	-0.09423701
43	0xbc6aa179	-0.014320725
44	0xbd4bd6bb	-0.04976533
45	0xbda7c2ca	-0.0819145
46	0xbd3fa527	-0.04678836
47	0xbd4f08c3	-0.050545465
48	0xbd5b599b	-0.05355225
49	0xbd33054c	-0.043706223
50	0xbdd5a1f7	-0.10431283
51	0x3d042cf0	0.03226942
52	0x3a8bd6a4	0.0010668826
53	0x3b8bddb4	0.0042683724
54	0xbba809c2	-0.0051281163
55	0xbd2b3826	-0.041801594
56	0xbb8c3021	-0.0042781984
57	0xbc6aafd8	-0.014324151
58	0xbdacdc42	-0.08440448
59	0xbaf5a2b1	-0.0018740502
60	0xbdb380fe	-0.08764838
61	0xbda72a02	-0.08162309
62	0xbc5a1dee	-0.0133128
63	0xbd913a6d	-0.07091222
64	0xbd36be8f	-0.044615325
65	0xbc3e4d5c	-0.011615124
66	0xbdfe7927	-0.12425452
67	0xbddd43ba	-0.108039334
68	0xbdfecd02	-0.12441446
69	0xbdcbc02b	-0.099487625
70	0xbdc1e89c	-0.09468195
71	0xbdd63378	-0.10459036
72	0xbccbf286	-0.024895918
73	0xbd971a97	-0.073781185
74	0xbd8be7e3	-0.06831338
75	0x3dc661ad	0.09686599
76	0xbcca0142	-0.024658803
77	0xbd3a4777	-0.04547831
78	0xbde130e8	-0.10995656
79	0x3d778040	0.060425043
80	0xbddc7589	-0.107646056
81	0xbcf3086c	-0.029667102
82	0xbdb4d82a	-0.088302925
83	0x3ce52e46	0.027976166
84	0xbdea004a	-0.114258364
85	0xbdc65c2c	-0.09685549
86	0xbe47eebd	-0.19524665
87	0x3d93ba71	0.07213295
88	0x3de92e37	0.11385768
89	0xbd0d1a4e	-0.034448914
90	0x3d3b8cde	0.04578864
91	0xbc31653a	-0.010827357
92	0xbd0a59f0	-0.033777177
93	0xbd8ca2ad	-0.068669654
94	0xbd864d81	-0.065577514
95	0x3d2b35aa	0.041799225
96	0xbdb57eba	-0.08862062
97	0xbd737542	-0.059437998
98	0xbdcf5992	-0.10124506
99	0xbd9aeb28	-0.07564384
100	0xbe6c3704	-0.23067862
101	0x3bd5c4c8	0.0065237023
102	0xbdf21afd	-0.11821554
103	0xbd55e133	-0.05221672
104	0xbcf485e8	-0.029849008
105	0xbd1dbed6	-0.038512073
106	0xbd752ec9	-0.05985907
107	0xbddcdf13	-0.107847355
108	0xbdaa2bd6	-0.08309142
109	0xbd7a274a	-0.061072625
110	0xbdcb1351	-0.09915794
111	0xbd481373	-0.048846673
112	0xbe913baa	-0.28365833
113	0xbd5d40d9	-0.05401692
114	0xbce6a263	-0.028153604
115	0xbba848f2	-0.005135649
116	0xbd8b2ab2	-0.06795253
117	0xbd4b045b	-0.0495647
118	0xbd989af0	-0.07451427
119	0xbd947cbd	-0.072503544
120	0xbb73e2b5	-0.0037213985
121	0xbd20b3f6	-0.039234124
122	0xbdc2f5eb	-0.095195614
123	0xbdbb707d	-0.09152315
124	0xbd943ed8	-0.07238549
125	0xbcc83ba1	-0.024442496
126	0xbdba9973	-0.09111299
127	0xbd8b55fa	-0.06803508

encoder.2.weight f4 [256, 128]
0	0x3e8b2b66	0.27181548
1	0x3e7b6f70	0.24554229
2	0x3d62172e	0.055197887
3	0xbe31be72	-0.17357805
4	0xbbbc3870	-0.0057440326
5	0xbe4d6438	-0.20057762
6	0xbb9ae210	-0.004726656
7	0x3cdf6344	0.027269013
8	0xbd57e3e5	-0.05270757
9	0x3c91ff03	0.017821794
10	0x3db0c3dc	0.08631107
11	0x3e36b96d	0.17844172
12	0x3e628874	0.22122365
13	0x3defbe55	0.11706225
14	0xbd11e1e1	-0.035615806
15	0x3e760816	0.24026522
16	0xbd3facb4	-0.046795562
17	0x3c3546b5	0.011064221
18	0x3ebf1f5a	0.37328607
19	0xbd8cc74a	-0.06873949
20	0x3dc75e1c	0.09734747
21	0xbea85576	-0.32877702
22	0x3d2b52da	0.04182706
23	0x3d7c7e05	0.06164362
24	0x3e076b87	0.13224612
25	0x3d37f774	0.044913724
26	0x3d3f28fa	0.046669938
27	0xbd2c0588	-0.041997463
28	0xbe25f6e2	-0.1620746
29	0x3d4249b9	0.04743359
30	0xbd9605a7	-0.07325297
31	0x3dc0c386	0.09412293
32	0x3df7a824	0.12092617
33	0xbede19f6	-0.43379182
34	0x3cfe8e09	0.031073587
35	0xbcb0006d	-0.021484578
36	0x3d6408b2	0.055672355
37	0xbd46fc78	-0.048580617
38	0x3ce1e0f3	0.027573084
39	0x3d97ea0a	0.07417686
40	0x3dc08882	0.09401037
41	0x3f1c18eb	0.6097552
42	0x3dda1dba	0.10650201
43	0x3e693ace	0.22776338
44	0x3cef25f7	0.029192908
45	0x3d205a46	0.03914859
46	0x3e38398b	0.17990701
47	0xbd2863c2	-0.04111076
48	0x3d444649	0.04791859
49	0x3d37e169	0.044892702
50	0xbc0e2034	-0.00867467
51	0xbd56d86d	-0.052452493
52	0x3d5bd76f	0.05367225
53	0x3d694e35	0.05695935
54	0x3cdf2b6d	0.027242387
55	0x3dd217ef	0.10258471
56	0x3e0cca63	0.1374908
57	0xbce98137	-0.028503997
58	0xbe3c92dc	-0.18415397
59	0x3d5f3558	0.054494232
60	0xbd022205	-0.031770725
61	0xbce5e52e	-0.028063383
62	0x3e7c70ce	0.24652407
63	0x3d1feb8a	0.039042987
64	0x3cf65764	0.030070968
65	0x3b8140ae	0.003944478
66	0x3d3bef89	0.045882735
67	0x3c824547	0.015902175
68	0xbce2cd6e	-0.027685847
69	0xbe4bd34d	-0.19904824
70	0x3d927ad1	0.071523316
71	0x3caa394b	0.020779273
72	0x3d931b0a	0.07182892
73	0xbdb32e5d	-0.087490775
74	0x3de30ea3	0.11086776
75	0xbf4f581c	-0.8099382
76	0x3e15a616	0.14614138
77	0xbe501269	-0.20319523
78	0x3c9499ec	0.018139802
79	0x3ded2136	0.115786
80	0xbdb65aa1	-0.08904005
81	0x3c28708d	0.01028074
82	0x3e27619c	0.16345829
83	0xbeac5cbc	-0.336645
84	0x3dbba9af	0.09163224
85	0xbd9d2fc9	-0.0767513
86	0x3bb54bab	0.005532702
87	0x3bdd47c1	0.0067529385
88	0x3e421eeb	0.18957107
89	0x3e0a5846	0.13510236
90	0xbcb6761a	-0.022273112
91	0xbc943cd4	-0.018095411
92	0xbc0c9ac2	-0.008581819
93	0xbd948b35	-0.07253114
94	0x3d827b81	0.06371213
95	0xbd062dac	-0.0327584
96	0xbb42f712	-0.0029749316
97	0xbd6bb8e4	-0.057549372
98	0x3d2d7e1b	0.04235659
99	0x3db20d61	0.08693958
100	0xbe42385e	-0.18966815
101	0xbe2fc089	-0.1716329
102	0x3d8d2169	0.06891138
103	0x3d094e76	0.03352209
104	0x3dbf3d54	0.09337869
105	0x3dd53bd7	0.10411804
106	0x3dac3ca0	0.08410001
107	0x3bc8c2bd	0.0061267302
108	0x3dd7aed9	0.105313964
109	0x3d21120a	0.039323844
110	0xbc918ad1	-0.017766388
111	0x3d342d82	0.043988712
112	0xbcbd1427	-0.023080898
113	0x3d96324d	0.07333813
114	0x3e0de18f	0.13855575
115	0x3d84b5d2	0.06479992
116	0x3d22f1fb	0.03978155
117	0x3cb5d00f	0.022193937
118	0x3ccb7a41	0.024838569
119	0xbec2b835	-0.38031164
120	0xbf327912	-0.6971599
121	0x3dd1ae34	0.10238305
122	0xbf63efc6	-0.8903774
123	0x3e196886	0.14981279
124	0x3d43160a	0.04762844
125	0x3e3a7056	0.18206915
126	0x3d8863bd	0.066596486
127	0x3dfd3c32	0.12364997
128	0xbc92308b	-0.017845413
129	0xbd8495ae	-0.06473862
130	0xbdb2d9c0	-0.08732939
131	0x3d49dd25	0.049283165
132	0xbda78f6b	-0.08181652
133	0xbdd9a084	-0.10626319
134	0x3d67799e	0.056512468
135	0xbd9e2d7f	-0.077235214
136	0x3d0b87f1	0.03406519
137	0x3d28167c	0.041037068
138	0xbd16a519	-0.036778543
139	0xbbd272ca	-0.0064223753
140	0xbdeec154	-0.11657968
141	0x3d2b93c7	0.04188898
142	0xbdd93a83	-0.10606863
143	0x3d406d9f	0.046979543
144	0x3d10ed54	0.035382584
145	0x3db08549	0.08619172
146	0xbc9e4f84	-0.019325025
147	0xbd72cded	-0.059278417
148	0xbde0798c	-0.10960683
149	0xbae727c0	-0.0017635748
150	0x3d965199	0.07339782
151	0xbdb1a235	-0.08673517
152	0x3cd8ffad	0.026489103
153	0xbd3730fc	-0.04472445
154	0x3d276d5a	0.04087577
155	0xbd4b6d7c	-0.04966496
156	0xbcfd304e	-0.030906823
157	0xbcb5c879	-0.02219032
158	0xbd45e1f8	-0.048311204
159	0x3d07eee7	0.03318682
160	0xbd9ac20f	-0.07556545
161	0xbde73232	-0.11288871
162	0xbd3bb489	-0.04582647
163	0xbd3f7063	-0.04673804
164	0x3cd73e8c	0.026274942
165	0xbc9f2888	-0.019428506
166	0x3bba98e0	0.0056944937
167	0xbd30105d	-0.042984355
168	0xb6210ec9	-2.3999476e-06
169	0x3d206c12	0.039165564
170	0xbda4f873	-0.080552004
171	0x3cc0cb93	0.023534572
172	0x3ca0d422	0.019632403
173	0x3d443cb6	0.04790946
174	0xbd9ece12	-0.077541485
175	0xbd88c01a	-0.066772655
176	0x3ca8f9da	0.020626951
177	0xbd1c717e	-0.038194172
178	0xbc197f20	-0.009368688
179	0x3d4069f6	0.046976052
180	0xbd375ed6	-0.044768177
181	0xbc66570d	-0.01405884
182	0x3cbc2513	0.022966897
183	0x3d0dfe2c	0.034666225
184	0xbd245c64	-0.040127173
185	0x3ca5ed55	0.02025477
186	0x3d43965d	0.04775082
187	0xbdcdbbe4	-0.10045603
188	0x3c259158	0.010105453
189	0xbcea2166	-0.028580379
190	0xbd9add6a	-0.07561763
191	0x3cdf1e14	0.027236022
192	0x3cbcd1d0	0.023049265
193	0xbd924103	-0.07141306
194	0xbc966101	-0.018356802
195	0xbda55e8c	-0.08074674
196	0x3c27a541	0.010232271
197	0x3d564979	0.052316163
198	0x3d6cac32	0.057781406
199	0x3bd8b6a0	0.0066135675
200	0x3d749be1	0.05971897
201	0x3d89d8a9	0.06730778
202	0xbdb14e56	-0.086575195
203	0x3c98f4ab	0.018671354
204	0xbdd9ab77	-0.106284074
205	0xbd999457	-0.07498997
206	0x3c8949b0	0.01675877
207	0xbdeec3c4	-0.11658433
208	0xbca3cf64	-0.019996352
209	0x3cec5a65	0.028851697
210	0x3d502074	0.0508122
211	0xbd927c51	-0.07152618
212	0xbc52e57b	-0.012872095
213	0xbd513ee2	-0.05108536
214	0xbd2021de	-0.0390948
215	0xbde1042c	-0.10987124
216	0xbdbca1c2	-0.0921054
217	0xbdeb5022	-0.114898935
218	0x3d37af74	0.04484506
219	0x3bf74a66	0.007546711
220	0x3d44ed58	0.04807791
221	0xbd06ac99	-0.032879446
222	0xbc317d38	-0.010833077
223	0x3d090d81	0.033460144
224	0x3dab9a41	0.08379031
225	0xbd8a04d2	-0.06739201
226	0xbcc913c8	-0.024545565
227	0xbda00519	-0.07813472
228	0x3d1c3286	0.03813412
229	0xbc1625ed	-0.009164316
230	0xbd8debbd	-0.06929729
231	0xbd553510	-0.052052557
232	0xbd4a4bcf	-0.049388703
233	0x3d4e0493	0.05029733
234	0xbd3fb7ed	-0.046806265
235	0x3cbf570a	0.023356933
236	0xbd48d9b4	-0.049035743
237	0xbd8ca98e	-0.068682775
238	0xbcf37fae	-0.029723968
239	0x3d58536e	0.05281394
240	0xbc8f1d1c	-0.017469935
241	0xbcae4798	-0.021274373
242	0xbd9c0939	-0.076189466
243	0xbd8a3a9a	-0.067494586
244	0xbdc203ba	-0.09473367
245	0xbd303fca	-0.043029584
246	0xbd048c63	-0.032360446
247	0x3c8c44fb	0.017122736
248	0xbdac7790	-0.08421242
249	0x3d361a53	0.0444587
250	0x3c59f068	0.013301946
251	0xbd0e06f7	-0.03467461
252	0x3d5ca5e2	0.053869136
253	0x3b686dca	0.003546583
254	0x3d58e277	0.05295035
255	0x3d5b7a8c	0.053583667

encoder.2.bias f4 [256]
0	0x3e23a003	0.15979008
1	0xbdca4af9	-0.09877581
2	0x3cb8b1b7	0.022545679
3	0xbe2f8279	-0.17139615
4	0x3dcd61a6	0.100283906
5	0xbe323f21	-0.17406894
6	0x3e8a7a04	0.27046216
7	0x3de54082	0.111939445
8	0xbbe9476f	-0.0071191113
9	0xbdffb46f	-0.12485587
10	0xbddc08aa	-0.1074384
11	0xbe001916	-0.1250957
12	0x3de8cf29	0.11367638
13	0x3def36cb	0.11680373
14	0x3e5f48ff	0.2180519
15	0xbcdfb29a	-0.027306844
16	0x3e8a5f81	0.2702599
17	0xbd9d8fc2	-0.07693435
18	0x3decde69	0.11565859
19	0xbdbc4870	-0.09193504
20	0xbd57ff60	-0.05273378
21	0xbce17c9b	-0.027525237
22	0x3ebfc685	0.37456146
23	0x3ddb75fa	0.107158616
24	0x3e3c13f6	0.1836699
25	0x3e57aaf3	0.21061306
26	0x3e4682bd	0.1938581
27	0xbd98e4aa	-0.07465489
28	0xbe109fa1	-0.14123394
29	0xbd9e26da	-0.07722254
30	0xbe023968	-0.12717211
31	0xbddfdc1e	-0.10930656
32	0x3d9645af	0.0733751
33	0xbd9fbbae	-0.07799469
34	0x3e2a1d24	0.16612679
35	0x3e4cb6b9	0.19991578
36	0x3da83437	0.08213084
37	0x3e32b254	0.1745084
38	0xbda108d7	-0.07863014
39	0xbd065897	-0.03279933
40	0xbcf532ab	-0.029931387
41	0x3e3f4a15	0.18680604
42	0xbe0c8053	-0.13720827
43	0x3e654955	0.22391255
44	0x3e4f884e	0.2026684
45	0x3deb62a2	0.11493422
46	0x3e1a841c	0.15089458
47	0x3e11c8df	0.14236782
48	0x3db3e1bb	0.08783289
49	0x3e4aa3d8	0.19789064
50	0x3cc52e9c	0.024070077
51	0xbd5b055e	-0.053471915
52	0x3e09eca3	0.13469176
53	0xbdc0be6f	-0.09411322
54	0x3de02a8f	0.109456174
55	0xbeb53fa3	-0.35400113
56	0x3daa0b5c	0.08302948
57	0x3db5d48f	0.08878433
58	0x3e51ef6b	0.20501487
59	0xbe03400c	-0.128174
60	0x3e10a090	0.1412375
61	0x3dc64a17	0.096821
62	0xbdb8dad1	-0.09026111
63	0x3ef72d45	0.48276725
64	0x3e055cca	0.13023677
65	0xbe72ca5c	-0.23710006
66	0xbd15fa0b	-0.036615413
67	0xbd777464	-0.060413733
68	0x3e3333f6	0.1750029
69	0x3dea3d33	0.11437454
70	0xbe3c61a9	-0.1839663
71	0x3de56429	0.11200745
72	0x3e341f2b	0.17590015
73	0xbd9d8134	-0.07690659
74	0xbe37e733	-0.17959289
75	0xbc01c6f3	-0.007920968
76	0xbe0a553a	-0.13509074
77	0xbdc29597	-0.09501188
78	0x3de5d321	0.1122191
79	0x3e7d730b	0.24750917
80	0x3e583aca	0.21116176
81	0xbe4054b1	-0.18782307
82	0xbe10069c	-0.14065021
83	0x3e034aa1	0.12821437
84	0xbd87624a	-0.06610544
85	0x3d6c496d	0.05768721
86	0x3c955b13	0.018231904
87	0x3e24abbb	0.16081135
88	0xbd043794	-0.032279566
89	0x3e6b5705	0.22982414
90	0x3ebb2914	0.36554778
91	0xbd581243	-0.05275179
92	0x3d9735eb	0.07383331
93	0xbd9a719b	-0.075412
94	0x3ecacd98	0.3960998
95	0xbddea8ba	-0.10872026
96	0xbe62a3e8	-0.22132838
97	0xbdafe762	-0.08589055
98	0xbcbe9700	-0.023265362
99	0x3bc50234	0.0060122255
100	0x3e182254	0.14856845
101	0xbd44a610	-0.048009932
102	0x3df40bd7	0.11916321
103	0xbce30ea8	-0.02771695
104	0x3dafa72c	0.085768074
105	0x3e65613a	0.2240037
106	0xbe699fc6	-0.22814855
107	0xbdc948b7	-0.098283224
108	0xbd95f0cf	-0.07321321
109	0xbe0ede18	-0.1395191
110	0x3e25aa89	0.16178335
111	0x3defc800	0.11708069
112	0xbe241d2f	-0.16026758
113	0xbd99c9a6	-0.075091645
114	0x3da92655	0.082592644
115	0x3e551960	0.20810461
116	0xbd305571	-0.043050233
117	0xbd21fcad	-0.03954761
118	0x3e1df0b1	0.15423848
119	0x3e503167	0.20331345
120	0x3e4689e5	0.1938854
121	0xbd2e64a0	-0.042576432
122	0xbe650185	-0.22363861
123	0x3dde2580	0.10846996
124	0xbde06bf2	-0.10958089
125	0x3e33192b	0.1749007
126	0xbcdc274b	-0.026874205
127	0x3dc65afd	0.096853234
128	0x3e380a8f	0.17972778
129	0x3e0b4fd8	0.13604677
130	0x3e11c581	0.14235498
131	0xbdf23edf	-0.11828398
132	0xbe1f7cd3	-0.1557496
133	0x3d5a4a6b	0.053293627
134	0xbd96e3e3	-0.07367685
135	0xbcda326a	-0.026635367
136	0xbe1d0c9f	-0.15336846
137	0xbd834365	-0.06409339
138	0x3e10dde6	0.14147148
139	0xbdfe5cfc	-0.12420079
140	0x3c512a3b	0.012766416
141	0x3e3f18e0	0.18661833
142	0x3cae8ac7	0.021306409
143	0x3d931c64	0.071831495
144	0x3e0019f2	0.12509897
145	0x3caccb4e	0.021093037
146	0x3dfed9ea	0.124439076
147	0x3e66aa0d	0.22525807
148	0xbdd1b530	-0.10239637
149	0xbdaec72c	-0.08534083
150	0x3e86b09c	0.26306617
151	0x3dded66c	0.108807415
152	0xbe119d22	-0.14220098
153	0x3da1a710	0.07893193
154	0x3e48d1ee	0.19611332
155	0xbe9e130b	-0.30873904
156	0x3dd8396c	0.10557827
157	0x3dffdeca	0.124936655
158	0x3e3bdc8e	0.18345854
159	0xbd84a6c4	-0.064771205
160	0x3e202f6a	0.15643087
161	0x3d88db04	0.06682399
162	0xbd3348b1	-0.043770496
163	0xbe812f27	-0.25231287
164	0xbe912863	-0.28351125
165	0x3d84de03	0.06487658
166	0xbd75cfc4	-0.060012594
167	0xbde3fe17	-0.11132448
168	0x3e1d7a5b	0.15378706
169	0xbba71213	-0.00509859
170	0x3e117cf3	0.1420782
171	0x3d27e2b9	0.040987704
172	0xbdc16f57	-0.094450645
173	0x3e93e235	0.2888352
174	0xbd891817	-0.06694048
175	0x3dd6d030	0.10488927
176	0xbe40f1bf	-0.18842219
177	0x3d305aad	0.043055225
178	0x3daa146c	0.083046764
179	0xbe26fb50	-0.16306806
180	0xbe460c40	-0.1934061
181	0xbccab2f4	-0.024743535
182	0x3cf3afed	0.029746974
183	0x3ddf71f8	0.1091041
184	0x3e5d414d	0.21606942
185	0xbd865ae2	-0.06560303
186	0x3e8b0219	0.27150038
187	0x3e188b97	0.14897
188	0xbd887535	-0.066629805
189	0xbdfbdaa8	-0.12297565
190	0x3e2faa4f	0.17154811
191	0x3e0bd3d3	0.13655023
192	0x3e16eee1	0.14739563
193	0xbe56ad99	-0.2096466
194	0xbd86de44	-0.065853626
195	0x3d4f7410	0.050647795
196	0xbe026fe9	-0.12738003
197	0xbd97c91f	-0.07411408
198	0xbd23fdd5	-0.040036995
199	0xbd744869	-0.05963937
200	0xbdf72a50	-0.12068617
201	0x3e71366a	0.23555914
202	0xbdcf070c	-0.10108766
203	0xbd31d096	-0.043411814
204	0x3dacd194	0.08438411
205	0x3e6ee6ca	0.23330227
206	0x3a1272a9	0.00055865437
207	0x3ded0ebd	0.11575077
208	0xbd22f29c	-0.03978215
209	0xbda086b3	-0.07838192
210	0x3e1e90cc	0.15484923
211	0xbdfc788e	-0.123276815
212	0xbd954cbf	-0.07290029
213	0x3e3d7159	0.1850027
214	0x3e2da8af	0.16958879
215	0xbe62af28	-0.2213713
216	0xbda66a04	-0.081256896
217	0x3e5ec862	0.21756127
218	0x3e469fca	0.19396892
219	0x3e3e4b5f	0.1858344
220	0x3e30afb4	0.17254525
221	0x3df7e6d8	0.12104577
222	0xbdb46ff0	-0.08810413
223	0x3e49aece	0.19695589
224	0x3e3b36db	0.18282644
225	0x3d8d6ae9	0.06905157
226	0x3e24d427	0.16096555
227	0xbe11e553	-0.14247636
228	0x3c9a3bd8	0.018827364
229	0x3e16156f	0.14656614
230	0x3ea0ce75	0.31407514
231	0xbdcfd219	-0.10147495
232	0x3c4a6bd8	0.0123548135
233	0xbd2178e1	-0.03942192
234	0x3ddd3e0f	0.10802852
235	0xbdfbbad2	-0.122914925
236	0x3db2c4dd	0.08728955
237	0x3e1655e6	0.14681205
238	0x3e24b1e2	0.16083482
239	0x3df21c8a	0.1182185
240	0xbd0bac83	-0.034100067
241	0x3decea4b	0.11568125
242	0x3e481853	0.19540529
243	0x3db630b1	0.08896006
244	0x3dcaa49c	0.09894678
245	0x3e2d3373	0.16914158
246	0xbdaca321	-0.08429552
247	0xbda32cef	-0.07967555
248	0xbe69c57c	-0.2282924
249	0xbda2dcfa	-0.07952304
250	0x3e05cf87	0.13067447
251	0xbd0c916c	-0.034318373
252	0xbc3a736a	-0.011380056
253	0xbcdf3502	-0.027246956
254	0xbdb9f704	-0.090803176
255	0x3e2a4c4c	0.16630667

encoder.4.weight f4 [4, 256]
0	0xbe082b11	-0.13297679
1	0x3bbd82c8	0.0057834126
2	0x3da71090	0.08157456
3	0xbd680830	-0.056648433
4	0x3da38bdf	0.07985663
5	0x3d65e7dd	0.056129325
6	0x3e6e71c7	0.2328559
7	0x3ca8ef89	0.020622032
8	0x3dec2388	0.115302145
9	0xbd3f5222	-0.046709187
10	0xbd9c5854	-0.07634035
11	0x3cfae2db	0.030625751
12	0x3c190d36	0.009341529
13	0x3e8abb30	0.27095938
14	0x3cb907cf	0.022586731
15	0x3dc28c01	0.0949936
16	0xbe5ad7e0	-0.21371412
17	0x3b8e123e	0.0043356707
18	0xbdbcb3f8	-0.09214014
19	0x3c167518	0.009183191
20	0x3df7a151	0.120913155
21	0xbda70366	-0.08154945
22	0xbe161243	-0.14655404
23	0x3e1642f5	0.1467398
24	0xbe000507	-0.12501918
25	0xbd3d1e9f	-0.04617178
26	0xbd4c425a	-0.049867965
27	0xbd33bbdc	-0.04388033
28	0xbe17ce83	-0.14824872
29	0xbca965b6	-0.020678382
30	0xbd8e4db7	-0.06948417
31	0x3d90a721	0.07063127
32	0x3d2b6890	0.041847765
33	0x3cc6f361	0.024285974
34	0x3d4d42db	0.050112586
35	0xbd6d50f0	-0.057938516
36	0x3ea0203f	0.31274602
37	0xbe1f125e	-0.1553435
38	0x3c9dd484	0.019266374
39	0xbcc5e228	-0.024155691
40	0x3da30cf2	0.079614535
41	0x3c03a8b7	0.00803583
42	0xbc7559d2	-0.014975028
43	0xbe291da2	-0.1651521
44	0xbdb8460a	-0.08997734
45	0x3bc9572a	0.006144424
46	0xbc84bb94	-0.016202725
47	0xb9ee39ca	-0.00045437954
48	0x3c6f783b	0.0146160675
49	0x3d0d146b	0.0344433
50	0x3d8bfb93	0.06835093
51	0x3cfef219	0.0311213
52	0x3d338b42	0.04383398
53	0xbc7bc41f	-0.015366583
54	0x3e13fa15	0.14450867
55	0xbd31c9fd	-0.04340552
56	0xbcd888a3	-0.026432341
57	0x3db977a0	0.0905602
58	0xbdcc7727	-0.09983664
59	0xbc479b37	-0.012183002
60	0xbd6a207f	-0.057159897
61	0xbd42ccd3	-0.047558617
62	0x3d8f0d4a	0.069849566
63	0xbf53bb84	-0.82708
64	0x3c09834b	0.008393119
65	0xbdeaa6a7	-0.11457568
66	0xbdb02578	-0.086008966
67	0x3dcb6023	0.09930446
68	0xbc843ea7	-0.016143156
69	0xbd893db5	-0.06701223
70	0x3d9c223b	0.076237164
71	0xbe87f4aa	-0.2655385
72	0x3dad5538	0.0846352
73	0xbc5f462f	-0.013627573
74	0xbda7cc6f	-0.081932895
75	0x3da01bdf	0.07817816
76	0x3dbfcd10	0.093652844
77	0xbd021027	-0.031753685
78	0x3db3902f	0.08767735
79	0xbe0d692d	-0.13809653
80	0xbe61de43	-0.22057442
81	0xbde47bfc	-0.11156461
82	0x3cf74ed4	0.030188955
83	0xbcfd3511	-0.030909093
84	0x3d39c05f	0.045349475
85	0x3c8f65db	0.017504623
86	0x3dd3c37e	0.103400216
87	0xbe3cac6a	-0.18425146
88	0xbd41e5c1	-0.04733825
89	0xbe5c446a	-0.21510473
90	0x3e33d385	0.17561157
91	0x3da8e251	0.082462914
92	0x3e650b31	0.2236755
93	0x3d71a0c7	0.05899122
94	0xbe61b7d1	-0.22042777
95	0xbd867354	-0.06564966
96	0xbe2a4511	-0.16627909
97	0x3d217f56	0.039428078
98	0x3d9ea278	0.07745832
99	0x3d94cf95	0.07266156
100	0x3de4a839	0.111648984
101	0x3e0023b8	0.12513626
102	0x3c8db5a2	0.017298523
103	0xbcd14449	-0.025545256
104	0xbbe48db3	-0.0069748997
105	0xbe949b7c	-0.29024875
106	0xbd96512e	-0.073397025
107	0x3b1bbce5	0.0023763713
108	0x3d8ba1c6	0.06817965
109	0x3d3b2717	0.045691576
110	0x3d4d6424	0.05014433
111	0xbe7b0671	-0.24514176
112	0xbd88e084	-0.06683448
113	0x3c8a72d5	0.01690046
114	0x3c591e4b	0.013251851
115	0xbe201f28	-0.15636885
116	0x3dec33cd	0.11533318
117	0x3c32409a	0.01087966
118	0x3beb6c32	0.0071845287
119	0xbe6984bc	-0.2280454
120	0xbd78dd3e	-0.060757868
121	0x3c7d0260	0.015442461
122	0x3db752fe	0.089513764
123	0xbc69b65f	-0.014264672
124	0xbda50bc5	-0.080588855
125	0xbb9f00bb	-0.004852382
126	0xbba4c6eb	-0.0050285957
127	0xbddbd926	-0.10734777
128	0x3dfbc7cc	0.122939676
129	0xbe9fe695	-0.31230608
130	0x3c8fd6f3	0.01755855
131	0xbc380e49	-0.011233875
132	0xbd11b702	-0.03557492
133	0x3cbfcadb	0.023412159
134	0xb9dfe3d2	-0.00042703614
135	0x3dc3d7e1	0.0956266
136	0x3d65cef0	0.056105554
137	0x3bcce799	0.0062531945
138	0xb9be9373	-0.00036349482
139	0xbc804f93	-0.015662944
140	0x3d6d4f27	0.057936814
141	0xbd5d4887	-0.054024246
142	0xbc803b0b	-0.015653154
143	0x3df316bd	0.11869571
144	0x3e5e1545	0.21687801
145	0x3dabddd3	0.08391919
146	0xbd2f6219	-0.042818163
147	0xbc25377e	-0.010084031
148	0x3d24a0af	0.040192302
149	0xbd4412fb	-0.047869664
150	0x3e250b28	0.16117537
151	0xbe4acca4	-0.19804627
152	0xbbe0e35e	-0.006863042
153	0x38d2a488	0.00010044227
154	0x3e5e1c60	0.21690512
155	0xbe4942b7	-0.19654356
156	0x3e131f29	0.14367355
157	0x3df104c9	0.11768491
158	0x3d10e5a2	0.035375245
159	0x3db02d43	0.08602383
160	0x3dc44940	0.09584284
161	0x3d690957	0.056893673
162	0x3c99000f	0.018676786
163	0x3e2a56e5	0.1663471
164	0xbdb86f77	-0.09005635
165	0x3ec5dc9e	0.3864488
166	0x3d1d57e8	0.038413912
167	0xbd5449c1	-0.05182815
168	0x3ea9725a	0.33095056
169	0xbccd16d9	-0.025035309
170	0xbe9ea3b0	-0.3098426
171	0x3c4caa9e	0.01249185
172	0x3b136222	0.0022488912
173	0xbe2301f6	-0.15918717
174	0x3d2991ad	0.041398693
175	0x3cb811aa	0.02246936
176	0x3cc6bb9e	0.024259385
177	0x3b7d184d	0.003861922
178	0x3d376e0f	0.044782694
179	0xbd85dc8a	-0.06536205
180	0x3d91ebe9	0.071250744
181	0xbbeec17e	-0.0072862497
182	0x3e4ffad0	0.20310521
183	0xbcab367f	-0.02090001
184	0xbdda3942	-0.10655452
185	0x3d00833b	0.03137515
186	0x3dc21da4	0.0947831
187	0x3cd7aacc	0.02632656
188	0x3d8c11d0	0.06839335
189	0x3c5f5ffe	0.013633726
190	0x3cc9462e	0.024569597
191	0x3b4ec3ea	0.003154988
192	0x3e2f4efa	0.17119971
193	0xbd83aecd	-0.06429825
194	0x3d647927	0.055779602
195	0x3c6bca1a	0.0143914465
196	0xbe358ae2	-0.17728761
197	0xbccbb109	-0.02486469
198	0xbcf4dbcd	-0.029889965
199	0x3d4793e5	0.048725028
200	0xbd2aaf34	-0.041670993
201	0x3b227b7e	0.0024792845
202	0x3cc54d5f	0.024084745
203	0xbb79a133	-0.0038090467
204	0xbb85f466	-0.0040879725
205	0xbd6ef1da	-0.058336116
206	0xbd125a9e	-0.03573095
207	0x3c883077	0.016624672
208	0xbce02557	-0.027361555
209	0xbd07d937	-0.033166137
210	0x3d069d49	0.032864843
211	0x3db85899	0.09001274
212	0xbbe89e98	-0.007098984
213	0xbecbd1bd	-0.39808455
214	0xbe54bad5	-0.20774396
215	0xbdac6476	-0.08417599
216	0x3cea3d0c	0.028593563
217	0x3d255c6c	0.040371343
218	0xbd6ad94d	-0.05733614
219	0xbdbb77bb	-0.09153696
220	0xbd7808c5	-0.06055524
221	0x3c5f40e4	0.013626311
222	0xbe0b4767	-0.13601457
223	0x3e8ecbae	0.2788977
224	0xbd810a80	-0.06300831
225	0x3db7d69f	0.089764826
226	0xbdebc88c	-0.11512861
227	0xbda49c82	-0.08037664
228	0xbd8d3264	-0.06894377
229	0xbd72371a	-0.05913458
230	0xbe23b06f	-0.15985273
231	0xbcafe94a	-0.021473546
232	0x3d2c4a1c	0.042062864
233	0x3dbfc699	0.09364051
234	0x3db598f7	0.08867066
235	0x3dec2490	0.11530411
236	0x3e903eb3	0.28172836
237	0xbc47cfcc	-0.012195539
238	0x3e9aa495	0.3020369
239	0x3e7196cb	0.23592679
240	0x3d32bde1	0.043638114
241	0x3bf0c488	0.007347647
242	0xbd7394ce	-0.059468083
243	0xbd32d761	-0.043662433
244	0xbe0d8b5e	-0.13822696
245	0x3c8cbbf5	0.017179469
246	0x3cb24f67	0.021766378
247	0x3c0e4ae8	0.008684851
248	0xbdcfb4c2	-0.10141899
249	0x3c9ce804	0.019153602
250	0x3e2263d4	0.15858394
251	0xbc236961	-0.009973855
252	0x3da2833e	0.07935189
253	0x3c747e47	0.014922685
254	0x3c60d48c	0.01372255
255	0xbe0f2c97	-0.13981853

encoder.4.bias f4 [4]
0	0x3df2a188	0.11847216
1	0x3e6ec60b	0.23317735
2	0xbda27df1	-0.07934178
3	0xbe69a428	-0.22816527

decoder.0.weight f4 [256, 4]
0	0xbe60163c	-0.21883482
1	0xbd87d6a8	-0.06632739
2	0xbeb59b2b	-0.35469946
3	0x3f0d4767	0.55187076
4	0xbe55d954	-0.20883685
5	0x3efff333	0.49990234
6	0x3e0c0e1f	0.13677262
7	0xbd273733	-0.040824126
8	0x3e4e83f0	0.20167518
9	0xbe85b285	-0.26112762
10	0x3d35786d	0.0443043
11	0xbea6d5cd	-0.32584992
12	0x3e09ecd9	0.13469256
13	0x3ecc37ec	0.39886415
14	0xbec4f412	-0.3846746
15	0x3e8ca099	0.27466276
16	0x3e898db6	0.2686593
17	0x3ea64f7a	0.3248251
18	0xbda68fb8	-0.08132881
19	0x3e8a9590	0.27067232
20	0xbe3d91f3	-0.18512706
21	0x3da0d386	0.07852845
22	0xbdf31409	-0.11869056
23	0xbe13fd87	-0.14452182
24	0x3d280094	0.041016176
25	0x3eba376a	0.36370403
26	0x3d801865	0.06254653
27	0x3e972539	0.29520586
28	0xbebac9f4	-0.36482203
29	0xbedcd821	-0.43133643
30	0x3ea95639	0.33073595
31	0x3eb85b5c	0.36007202
32	0xbab3ca8d	-0.0013716981
33	0x3dcec53e	0.10096215
34	0x3e46c01a	0.19409218
35	0x3e099a5b	0.13437788
36	0xbe953f6b	-0.29149947
37	0xbe2a4659	-0.16628398
38	0xbeaca431	-0.33719018
39	0x3d8948dc	0.0670335
40	0xbe852c88	-0.26010537
41	0x3ec9a52c	0.3938383
42	0x3e5145f0	0.20436835
43	0xbe82aa60	-0.2552061
44	0x3d3b002f	0.045654472
45	0x3ece11bb	0.40247902
46	0x3e195df9	0.14977254
47	0x3e36abb6	0.1783894
48	0x3dbef91a	0.09324856
49	0x3e66a297	0.2252296
50	0xbd428628	-0.047491223
51	0x3e4d6741	0.2005892
52	0x3dbf0268	0.09326631
53	0x3f3372d3	0.7009708
54	0x3e37ded2	0.17956093
55	0xbf0ddfa9	-0.55419403
56	0x3e06607b	0.13122742
57	0xbb9a3755	-0.004706303
58	0xbd413c24	-0.047176495
59	0xbe078ca9	-0.13237251
60	0xbe6ece4a	-0.2332088
61	0x3ef83ecd	0.48485413
62	0x3cf352b3	0.02970252
63	0xbe75ed62	-0.24016336
64	0xbc7291c6	-0.014805263
65	0xbd71ecf3	-0.059063863
66	0x3c36ec4c	0.011164736
67	0x3e2546b9	0.1614026
68	0x3eedf290	0.46474123
69	0x3ed61142	0.41810042
70	0xbc9df891	-0.019283565
71	0xbecd9b0a	-0.40157348
72	0xbeb1e7a1	-0.3474703
73	0xbc1ff9a8	-0.0097641125
74	0xbe3d18d3	-0.18466501
75	0xbe92a390	-0.28640413
76	0xbe2f0611	-0.17092158
77	0x3d4cd89f	0.050011273
78	0x3ebe105e	0.37121862
79	0x3e6fb98b	0.23410623
80	0x3e8eb2b3	0.27870712
81	0xbe611577	-0.21980844
82	0x3e404e11	0.1877978
83	0xbe9d7598	-0.3075378
84	0xbeb00567	-0.34379122
85	0x3ed4a3c0	0.4153118
86	0xbf00253d	-0.5005682
87	0x3e305bd7	0.17222534
88	0x3e072016	0.13195834
89	0x3ed043ea	0.40676814
90	0x3e2d80f1	0.16943718
91	0x3dfb107f	0.12259006
92	0x3e319c5d	0.17344804
93	0x3dae8acb	0.085225664
94	0xbd574f57	-0.0525659
95	0xbe180dd0	-0.14849019
96	0xbe82b577	-0.25529072
97	0xbe0c9f52	-0.13732651
98	0xbe608d56	-0.21928915
99	0x3f0e3c2e	0.55560577
100	0xbd7d750b	-0.0618792
101	0xbe8ac2a7	-0.27101633
102	0xbd143549	-0.03618363
103	0x3d1b5cf8	0.03793046
104	0x3e579f36	0.21056828
105	0x3eace359	0.33767202
106	0xbf090bdd	-0.53533727
107	0x3ee9be6d	0.45653096
108	0xbbaa90cc	-0.0052052494
109	0x3e0c0636	0.13674244
110	0x3b3d4fe4	0.002888673
111	0x3e5044da	0.20338765
112	0x3ebb0e7f	0.36534497
113	0x3e10bec5	0.14135273
114	0xbe10a5fa	-0.14125815
115	0x3ccbbaa3	0.024869269
116	0xbe8459cb	-0.25849757
117	0xbeb79c7e	-0.35861582
118	0xbdecfef0	-0.11572063
119	0x3eec1a18	0.46113658
120	0x3ea2e696	0.31816548
121	0x3dfacc96	0.12246053
122	0xbe359ac8	-0.17734826
123	0xbe04028e	-0.128916
124	0xbe89d028	-0.26916623
125	0xbd466a19	-0.048441026
126	0xbcf70dde	-0.03015798
127	0xbd83e934	-0.06440964
128	0x3e5bfbc5	0.21482761
129	0x3d43f15d	0.047837604
130	0xbe426301	-0.1898308
131	0xbe067a9f	-0.13132714
132	0xbe24f7a2	-0.1611009
133	0xbea42fad	-0.32067624
134	0xbeab6222	-0.33473307
135	0x3f2642be	0.6494559
136	0xbe50c1d2	-0.20386437
137	0x3e55cbe7	0.20878564
138	0x3e8a3057	0.26990005
139	0x3d4b8135	0.04968377
140	0x3bf0420c	0.007332092
141	0xbf375efb	-0.71629304
142	0xbd95153e	-0.07279442
143	0x3f73bd73	0.9521095
144	0xbe419109	-0.18902983
145	0x3eb3d635	0.35124364
146	0xbe6853e9	-0.22688259
147	0xbe4c1447	-0.1992961
148	0x3de03c17	0.10948961
149	0xbe6d539c	-0.23176426
150	0x3e934970	0.28766966
151	0xbdd573ff	-0.10422515
152	0xbe28e086	-0.16491899
153	0xbeb5e917	-0.35529396
154	0x3d14625e	0.036226623
155	0x3dffe1f9	0.12494273
156	0xbdf6a152	-0.12042488
157	0x3e1b03af	0.15138124
158	0xbf1de067	-0.61670536
159	0x3e211821	0.1573186
160	0x3d98f461	0.074684866
161	0x3f0c1201	0.5471497
162	0x3f499880	0.7874832
163	0xbeb49757	-0.35271713
164	0x3e68052a	0.2265822
165	0x3ef36d15	0.4754416
166	0x3e5ed056	0.21759161
167	0xbccbf198	-0.024895474
168	0xbe241831	-0.16024853
169	0xbe57fbd4	-0.21092159
170	0xbe4826c7	-0.19546042
171	0xbd830fa2	-0.06399466
172	0x3e2864e8	0.16444743
173	0x3edfbe23	0.4369975
174	0xbcb620b5	-0.022232393
175	0x3ddc4381	0.10755063
176	0x3d4fab00	0.050700188
177	0x3d8d3edd	0.06896756
178	0xbe9ec223	-0.3100749
179	0xbe9a2cc8	-0.3011229
180	0x3ba046d3	0.0048912554
181	0xbe4046ef	-0.18777059
182	0x3e0b9afd	0.13633342
183	0xbea83ed5	-0.32860437
184	0xbe790e7a	-0.24321929
185	0x3ea56d8d	0.32310143
186	0x3da376b8	0.07981628
187	0xbd272c45	-0.040813703
188	0x3ebd7e4b	0.37010416
189	0x3e269dbc	0.16271108
190	0xbe5c9000	-0.21539307
191	0x3e862395	0.26199022
192	0x3c4f2bab	0.012644689
193	0x3e20f63b	0.1571893
194	0x3e2337f3	0.15939312
195	0x3e3dd838	0.18539512
196	0xbea2ceb3	-0.31798324
197	0x3ec2281d	0.3792123
198	0x3ead8371	0.33889344
199	0xbd816c6a	-0.063195065
200	0xbc9b5cb1	-0.018965097
201	0xbd8deb3e	-0.069296345
202	0xbccb262b	-0.024798473
203	0x3e424df6	0.18975052
204	0xbe57ce90	-0.21074891
205	0x3efcfe35	0.49412695
206	0xbdf2c2ca	-0.11853559
207	0xbca9940d	-0.020700479
208	0xbe46894c	-0.19388312
209	0x3e768858	0.24075449
210	0xbdd4d129	-0.10391457
211	0xbe2038f4	-0.15646726
212	0xbead24f1	-0.33817247
213	0xbcaa48df	-0.0207867
214	0x3e76d6a2	0.24105313
215	0x3da4e9c3	0.08052399
216	0xbe1acfe4	-0.15118366
217	0x3e9ef6bf	0.31047627
218	0xbeca8531	-0.39554742
219	0x3e7c61c4	0.2464667
220	0x3cba4443	0.022737628
221	0x3d257348	0.040393144
222	0xbd1f6ca0	-0.038921952
223	0x3e7c84b4	0.24659997
224	0xbd71082c	-0.058845684
225	0xbe0007fd	-0.12503047
226	0xbdb2762b	-0.08713945
227	0x3eab92e8	0.33510518
228	0x3d0b4398	0.03400001
229	0xbc1e9b04	-0.009680513
230	0xbf1ee999	-0.6207519
231	0x3ea639b8	0.3246591
232	0x3e0076e9	0.1254536
233	0x3db1b928	0.08677894
234	0x3db57015	0.088592686
235	0xbc816278	-0.015794024
236	0xbed99c1c	-0.42501915
237	0xbe32872d	-0.17434378
238	0xbe1fd501	-0.15608598
239	0x3e83b398	0.25722957
240	0xbea1329b	-0.3148392
241	0x3cda66e4	0.02666039
242	0x3e0ae100	0.13562393
243	0xbe3b4425	-0.18287714
244	0x3ea32b7c	0.31869113
245	0x3ead87ba	0.33892614
246	0xbe4b3b03	-0.1984673
247	0x3e6d6c82	0.23185924
248	0x3c0b5233	0.008503485
249	0x3eee9be3	0.46603307
250	0x3e8abbd5	0.2709643
251	0xbdace94e	-0.08442937
252	0xbec9e588	-0.3943293
253	0xbe62af44	-0.22137171
254	0xbe917b85	-0.2841455
255	0x3dae6037	0.08514445

decoder.0.bias f4 [256]
0	0x3dac7351	0.08420432
1	0xbf0e73d2	-0.5564548
2	0x3ea47366	0.32119292
3	0x3ec2a75c	0.3801831
4	0xbf28bc3f	-0.6591224
5	0xbecb4c05	-0.39706436
6	0xbeb27674	-0.34855998
7	0xbeb817ec	-0.3595575
8	0xbf2c2c25	-0.6725486
9	0x3d33d31b	0.043902498
10	0xbe73f2fe	-0.23823163
11	0xbeadad8f	-0.33921477
12	0xbe0e9b00	-0.13926315
13	0xbca9a5bd	-0.020708913
14	0x3e888aa3	0.2666827
15	0x3e889c08	0.26681542
16	0xbe9a6d56	-0.30161542
17	0xbda804f2	-0.08204068
18	0xbefbd384	-0.4918481
19	0x3d92f3b4	0.07175389
20	0xbf176355	-0.59135944
21	0xbf0f3582	-0.5594102
22	0xbea7bf7f	-0.32763287
23	0x3e3b2f59	0.1827978
24	0x3e495a32	0.19663313
25	0x3e9aef5e	0.30260748
26	0xbe8932be	-0.26796526
27	0xbd5f2378	-0.054477185
28	0x3e897cca	0.2685302
29	0xbdcb2bd0	-0.09920466
30	0xbd33ae62	-0.043867476
31	0xbe220129	-0.15820755
32	0xbf515510	-0.8177042
33	0xbefd0f90	-0.49425936
34	0xbb4453d7	-0.00299572
35	0xbe4b3c24	-0.1984716
36	0x3d4f2a2b	0.050577324
37	0xbd48aec6	-0.048994802
38	0xbf07c65f	-0.53037065
39	0xbf15b335	-0.58476573
40	0xbd8743b7	-0.066047125
41	0xbd47e6c8	-0.048804075
42	0xbef69aee	-0.48165077
43	0xbd948cee	-0.07253443
44	0xbe54aa52	-0.20768097
45	0x3e917c44	0.2841512
46	0xbc4ea526	-0.012612617
47	0x3a413738	0.0007370594
48	0xbebd38e4	-0.36957467
49	0xbef66f0c	-0.48131597
50	0xbe95e64a	-0.2927726
51	0xbe3452d7	-0.17609726
52	0xbe9dd356	-0.308253
53	0xbf2a9f7a	-0.6664959
54	0xbe8600d0	-0.26172495
55	0xbee26a24	-0.44221604
56	0x3d84548b	0.06461438
57	0xbe0e2d4e	-0.1388447
58	0xbf34a253	-0.7056019
59	0xbe8f9f3e	-0.2805118
60	0x3e84c9f7	0.25935337
61	0xbf6d39c1	-0.9266625
62	0xbedb877c	-0.42876804
63	0x3cf93509	0.030420797
64	0xbc280323	-0.010254654
65	0xbf284cb9	-0.6574207
66	0xbf4f1ab4	-0.8090012
67	0x3cbf9ebc	0.02339112
68	0xbb4a0ce6	-0.0030830442
69	0x3bc2851a	0.005936277
70	0xbdb81a51	-0.089893945
71	0x3c618517	0.013764641
72	0x3e8a71ce	0.2703995
73	0x3d1cfa08	0.038324386
74	0xbeda13ae	-0.4259314
75	0xbe861452	-0.26187378
76	0xbf07b30e	-0.5300759
77	0xbeaf63e1	-0.3425589
78	0xbec018a1	-0.3751879
79	0xbd831637	-0.064007215
80	0xbe335fb4	-0.17516977
81	0x3d15e112	0.036591597
82	0xbf3a1902	-0.7269441
83	0x3ea9479c	0.33062446
84	0xbf3e5f82	-0.74364483
85	0xbf24434b	-0.6416518
86	0xbf1db9b1	-0.6161147
87	0x3e9a7de5	0.30174175
88	0xbd6946e0	-0.056952357
89	0xbf0fe24b	-0.5620467
90	0xbf30fc03	-0.6913454
91	0xbdfde36e	-0.123968944
92	0xbefd751b	-0.49503407
93	0xbea9b25c	-0.3314389
94	0xbebabc6b	-0.36471877
95	0xbf282e65	-0.6569579
96	0x3e53b29d	0.20673604
97	0xbd6e1abe	-0.058130972
98	0xbe1263d4	-0.14295894
99	0x3e374f0c	0.17901248
100	0xbea64287	-0.3247263
101	0x3e7ae5cc	0.24501723
102	0x3e3e2525	0.18568857
103	0xbe81be85	-0.25340667
104	0x3e5f3a52	0.21799591
105	0xbe80f0a4	-0.25183594
106	0xbe0db0c0	-0.13836956
107	0xbc5348e1	-0.012895794
108	0xbf24c473	-0.6436226
109	0xbe813bf5	-0.25241056
110	0xbe57f320	-0.21088839
111	0x3e5e555f	0.21712254
112	0xbf138201	-0.57620245
113	0xbd69b17e	-0.057054035
114	0xbf0b7596	-0.54476297
115	0x3eb56f94	0.3543669
116	0xbed6002f	-0.41797015
117	0x3e8a78ab	0.27045187
118	0xbeb7c8db	-0.35895428
119	0x3f00160e	0.5003365
120	0xbf230b71	-0.63689333
121	0xbe2760b3	-0.16345482
122	0xbe0e5ee4	-0.13903385
123	0xbeda92d9	-0.4269016
124	0xbda27439	-0.07932324
125	0xbcda0b81	-0.026616814
126	0xbf372f07	-0.71556133
127	0xbf219a60	-0.6312618
128	0xbe415240	-0.18879032
129	0xbe80d70d	-0.2516407
130	0xbeca37e1	-0.39495757
131	0xbbcf3737	-0.006323721
132	0xbf1461ec	-0.57961917
133	0xbf26bd1b	-0.651323
134	0xbf3ad1a7	-0.72976154
135	0xbf0173b8	-0.505672
136	0xbf0b4c51	-0.54413325
137	0x3e8f1537	0.27945873
138	0x3e2b4763	0.1672645
139	0x3ee3052b	0.4433988
140	0x3e74e289	0.23914541
141	0xbecc7d48	-0.39939332
142	0xbf0ea02e	-0.55713165
143	0x3e04d9eb	0.12973754
144	0x3e14d35b	0.1453375
145	0xbf11e29b	-0.569864
146	0xbd67ebf8	-0.05662152
147	0x3eb49880	0.35272598
148	0x3ca9da4a	0.020733971
149	0x3e23feec	0.16015214
150	0xbe53c9e2	-0.20682481
151	0xbf4373f9	-0.76348835
152	0xbf1fcb9d	-0.62420064
153	0xbf3875e2	-0.72054875
154	0xbeabbdb3	-0.33543167
155	0xbd9cd0cb	-0.076570116
156	0xbcf404d6	-0.029787462
157	0x3e973597	0.29533073
158	0xbe056590	-0.13027024
159	0x3dcae8ba	0.0990767
160	0x3e65eac4	0.22452837
161	0xbedcd432	-0.43130642
162	0xbea6d5af	-0.32584903
163	0xbf0ff343	-0.5623056
164	0x3bf03763	0.0073308214
165	0xbf3fc40a	-0.74908507
166	0x3ee9aef7	0.456413
167	0xbe863247	-0.26210234
168	0xbf294fe4	-0.6613753
169	0x3eff6b19	0.49886397
170	0xbedcf622	-0.43156534
171	0xbf22c311	-0.635789
172	0xbe9f1f9b	-0.310788
173	0x3d5ca9b1	0.053872768
174	0xbf81ff45	-1.0156027
175	0xbf42b01e	-0.76049984
176	0x3eafcea8	0.34337354
177	0xbec79da2	-0.38987452
178	0xbf14c314	-0.58110166
179	0xbe8c5f72	-0.2741657
180	0xbf05869d	-0.5215853
181	0x3e9d7f70	0.3076129
182	0xbedbbc57	-0.4291713
183	0xbeab90cf	-0.33508918
184	0xbebe5103	-0.37171182
185	0xbdbbe66e	-0.0917481
186	0xbf2a17be	-0.6644248
187	0x3f0330a8	0.5124612
188	0x3dc424a4	0.09577301
189	0x3e8f48ca	0.2798522
190	0xbf3ba714	-0.73301816
191	0xbedcf780	-0.43157578
192	0xbebad8f6	-0.36493653
193	0xbe2f1fde	-0.17102
194	0x3dee1661	0.11625362
195	0x3e004c20	0.1252904
196	0xbf48845f	-0.7832698
197	0xbe3caf42	-0.1842623
198	0xbe7674c7	-0.24067985
199	0xbee97a93	-0.4560133
200	0xbeef9eda	-0.46800882
201	0x3e0c1d50	0.13683057
202	0xbee6b8eb	-0.45062956
203	0x3e507b41	0.20359518
204	0x3d22fcb8	0.039791793
205	0xbc947985	-0.018124351
206	0x3e25df2f	0.16198419
207	0xbec0b164	-0.37635338
208	0xbe809fd5	-0.25121942
209	0xbf117d5d	-0.56831914
210	0xbf0bbdda	-0.54586565
211	0xbf493797	-0.7860045
212	0x3e72e54d	0.23720284
213	0xbef1263f	-0.47099492
214	0xbe2c72fd	-0.1684074
215	0xbde0b1c8	-0.10971409
216	0xbe61e2ce	-0.22059175
217	0x3dc5dd38	0.09661335
218	0x3d0312b4	0.03200026
219	0xbd8502fd	-0.064947106
220	0xbd98b6e3	-0.07456758
221	0x3e228900	0.15872574
222	0x3a8dccff	0.001081854
223	0x3dfbdf3a	0.122984365
224	0xbeb4cb39	-0.35311297
225	0xbf0c7007	-0.5485844
226	0xbf1ec90a	-0.6202551
227	0x3d0ec901	0.03485966
228	0xbebff1b2	-0.37489086
229	0x3e5284e8	0.20558512
230	0xbf29a358	-0.6626487
231	0x3d447643	0.047964346
232	0xbbb3f5e7	-0.0054919603
233	0xbf6e2aed	-0.9303425
234	0x3d1075e3	0.035268676
235	0xbeb7335d	-0.35781375
236	0x3d8799c7	0.066211276
237	0x3d4bedd3	0.049787354
238	0x3db5b6a5	0.08872727
239	0xbf458213	-0.771516
240	0xbecde6ce	-0.40215153
241	0xbedb5437	-0.42837688
242	0xbf0e78fe	-0.5565337
243	0xbe8a72e2	-0.27040774
244	0xbec9a2ea	-0.39382106
245	0x3e88c62b	0.2671369
246	0x3e7c49d1	0.24637534
247	0xbeb7e2fc	-0.35915363
248	0xbd59e0f4	-0.053193048
249	0x3ec2ba48	0.38032746
250	0x3de41871	0.11137474
251	0x3ecd3868	0.40082097
252	0x3e921a56	0.28535718
253	0xbe95ac76	-0.2923314
254	0x3d8ac60f	0.06776058
255	0xbf17bc46	-0.5927166
